ModelZoo/models/my_model/NewNetpara_1218_rx_1sir_5_real_channelnet.pth (torch_old, 231744 bytes, 32 tensors)

conv1.weight f4 [32, 1, 3, 3]
0	0x3de4d814	0.11174026
1	0xbd44b7e0	-0.04802692
2	0xbe9923df	-0.2991018
3	0x3ea19f5d	0.31566897
4	0xbdd53d76	-0.10412113
5	0xbe79502b	-0.24346988
6	0xbe6440f8	-0.22290409
7	0xbe0a21fe	-0.1348953
8	0x3e3df8ee	0.1855199
9	0xbe8632f0	-0.26210737
10	0xbe46ef08	-0.1942712
11	0x3e65c08e	0.22436735
12	0xba938100	-0.0011253655
13	0x3e029898	0.12753522
14	0x3e12714a	0.14301029
15	0x3e4aa48e	0.19789335
16	0x3d290dc8	0.04127291
17	0x3e42d116	0.19025072
18	0xbe400b00	-0.18754196
19	0xbdece41c	-0.11566946
20	0xbdf3864c	-0.118908495
21	0x3e77cf02	0.24200061
22	0xbcf10f10	-0.029426128
23	0xbd14d1d8	-0.036332935
24	0x3dc7c604	0.09754565
25	0x3e3e2d4a	0.18571964
26	0x3e702a82	0.23453715
27	0x3e941bab	0.2892736
28	0x3e8896f9	0.26677683
29	0x3e6dc61a	0.23220101
30	0xbe9d6053	-0.30737552
31	0x3e0efbf6	0.13963303
32	0xbde16fc6	-0.11007647
33	0x3e30cafa	0.1726493
34	0x3e0da836	0.13833699
35	0x3e3f0356	0.18653616
36	0xbe04ecdb	-0.12980978
37	0xbccb5790	-0.024822026
38	0x3ea55405	0.32290664
39	0xbdfa6040	-0.122253895
40	0x3ce49e00	0.027907372
41	0xbdf95720	-0.12174821
42	0xbe51ade6	-0.20476493
43	0xbd70a9b8	-0.058755606
44	0x3e1ced0a	0.15324798
45	0xbc9b1bb0	-0.0189341
46	0xbd831a30	-0.06401479
47	0x3d987500	0.07444191
48	0x3eaa7957	0.332957
49	0x3e5fec4e	0.21867487
50	0xbe996232	-0.2995773
51	0xbe6e011b	-0.23242609
52	0x3e092010	0.13391137
53	0xbdc3ae7c	-0.09554765
54	0x3e95a247	0.2922537
55	0xbda96284	-0.082707435
56	0xbea7d0ac	-0.32776392
57	0xbe5f6b53	-0.21818285
58	0x3d1a3728	0.037650257
59	0xbd00cd80	-0.03144598
60	0xbe49fcce	-0.19725344
61	0xbdc15f76	-0.09442036
62	0x3e2e7a86	0.17038926
63	0xbe334796	-0.17507777
64	0xbe0f2bce	-0.13981554
65	0x3d10fb68	0.03539601
66	0xbd9b01f4	-0.07568732
67	0xbe61184b	-0.21981923
68	0x3d4e41d8	0.050355762
69	0x3d698ea8	0.057020813
70	0xbdb7ec36	-0.089806005
71	0xbe2520eb	-0.16125838
72	0xbbcc61c0	-0.0062372386
73	0x3e85a607	0.2610323
74	0x3e90951d	0.28238764
75	0x3dfa1d00	0.122125626
76	0x3e626c9a	0.2211174
77	0x3d9a64cc	0.07538757
78	0x3e95aee7	0.29235002
79	0x3e63db32	0.22251585
80	0xbdbb7acc	-0.09154281
81	0xbd868ec0	-0.06570196
82	0x3e0e5172	0.13898256
83	0x3e9bc591	0.3042417
84	0x3e595242	0.21222785
85	0x3e0aef26	0.1356779
86	0x3e9ad095	0.3023726
87	0x3e8c4c79	0.27402094
88	0xbe269fb3	-0.16271858
89	0x3de671d0	0.11252177
90	0x3d92a3b0	0.07160127
91	0x3e0d6118	0.1380657
92	0x3e097688	0.13424122
93	0xbc66b380	-0.014080882
94	0xbea36be3	-0.3191825
95	0xbe9ba65b	-0.30400357
96	0x3e3f0792	0.18655232
97	0x3e5f167a	0.21785918
98	0xbce73e50	-0.028227955
99	0xbe522bb6	-0.20524487
100	0x3df8a690	0.12141144
101	0xbe8aba63	-0.27095327
102	0x3dfb2ce0	0.122644186
103	0xbe5692ee	-0.20954487
104	0x3e1a1872	0.15048388
105	0x3dd3c830	0.10340917
106	0xbd7ca168	-0.061677366
107	0x3c7dd7a0	0.015493304
108	0x3eaa1851	0.33221677
109	0x3e37d88e	0.17953703
110	0xbe9f2768	-0.31084752
111	0x3ea05e7d	0.3132209
112	0xbdb34d50	-0.087549806
113	0xbe1f976b	-0.15585105
114	0x3e6a81da	0.22901097
115	0x3dea384c	0.11436519
116	0x3d9b86e0	0.07594085
117	0xbca83940	-0.020535111
118	0xbe4039ee	-0.18772098
119	0xbc856680	-0.016284227
120	0x3cce29d0	0.025166422
121	0x3e540ba2	0.20707563
122	0xbe02d02e	-0.12774727
123	0xbd2856a8	-0.041098267
124	0xbe10a216	-0.14124331
125	0x3e0a52a2	0.13508084
126	0xbdb5fc36	-0.08885996
127	0x3d5aa7a0	0.053382516
128	0xbe7a85db	-0.24465124
129	0xbea07be7	-0.3134453
130	0x3df27960	0.11839557
131	0x3d7e2708	0.06204894
132	0xbe0b4c88	-0.13603413
133	0xbdb8e406	-0.09027867
134	0x3dfda77c	0.12385461
135	0xbdf0dfe6	-0.11761455
136	0xbe62f343	-0.2216311
137	0xbc7b0fe0	-0.015323609
138	0xbea001fe	-0.3125152
139	0x3e31712a	0.17328325
140	0xbe938a32	-0.28816372
141	0x3e996acd	0.29964295
142	0xbe1f177e	-0.15536305
143	0x3e5c0a76	0.21488366
144	0xbe29f660	-0.16597891
145	0xbe0499e0	-0.12949324
146	0xbdb691c6	-0.08914523
147	0x3d0e73a0	0.034778237
148	0xbe43b2a0	-0.19111109
149	0x3e936b49	0.2879279
150	0xbe80aa92	-0.25130135
151	0xbea99187	-0.3311884
152	0xbd1e6b08	-0.03867629
153	0xbe8ab086	-0.27087802
154	0xbe2eee53	-0.17083101
155	0x3d744358	0.059634537
156	0x3e918881	0.28424457
157	0xbe97ff60	-0.29687023
158	0xbe364c50	-0.17802548
159	0xbe30c726	-0.17263469
160	0x3e70d5a6	0.23519
161	0x3e1d1b36	0.15342411
162	0x3c66bfa0	0.014083773
163	0xbe9b187e	-0.30292124
164	0x3e5dc1f2	0.21656016
165	0x3ea3fb59	0.320277
166	0xbe9c45cb	-0.30521998
167	0x3d0456b8	0.032309264
168	0xbdbb9880	-0.091599464
169	0xbe0015e8	-0.12508357
170	0x3e372ed6	0.1788896
171	0xbcbbeb90	-0.022939473
172	0xbe99f1bf	-0.3006725
173	0x3e7605fa	0.24025717
174	0xbe032383	-0.12806515
175	0x3dc0af00	0.094083786
176	0x3e686936	0.22696385
177	0xbe1ea6a0	-0.1549325
178	0x3e13ae00	0.14421844
179	0x3a595e00	0.00082919
180	0xbdab91d6	-0.083774254
181	0x3d164ee0	0.036696315
182	0x3c07c280	0.0082861185
183	0xbe911d63	-0.28342733
184	0xbe0f4c8b	-0.13994043
185	0xbe6d1938	-0.23154151
186	0x3e059892	0.13046482
187	0xbd394c80	-0.04523897
188	0xbcbd41c0	-0.023102641
189	0xbdf05d40	-0.11736536
190	0x3e529102	0.20563129
191	0xbe86c464	-0.2632171
192	0x3e5a905a	0.21344128
193	0x3e451122	0.19244817
194	0xbea76392	-0.32693154
195	0xbe85d97c	-0.2614249
196	0xbe8dabf2	-0.27670246
197	0xbe795c3b	-0.2435159
198	0x3e78866e	0.24270031
199	0xbd82a720	-0.06379533
200	0x3e37e5b2	0.17958716
201	0xbe1d7b9e	-0.15379187
202	0x3e8d150d	0.27555123
203	0xbe2fccf3	-0.17168026
204	0x3e4718e2	0.19443086
205	0xbda76b5c	-0.08174774
206	0xbc423e00	-0.011855602
207	0x3d9d2f5c	0.07675049
208	0xbcbad690	-0.02280739
209	0xbe9229ce	-0.2854752
210	0xbe2ecc10	-0.17070031
211	0x3aa6e000	0.0012731552
212	0x3e3af24a	0.18256488
213	0x3e79641a	0.24354592
214	0xbdb9e6a6	-0.09077196
215	0xbe04497b	-0.12918656
216	0x3e5ca092	0.21545628
217	0x3e1adf1e	0.15124175
218	0x3e28d06e	0.1648576
219	0xbd7b3ee0	-0.06133926
220	0x3e86aa35	0.26301733
221	0xbe6eb5e6	-0.23311576
222	0xbcf5b080	-0.029991388
223	0xbe10b936	-0.14133152
224	0x3ea8614f	0.3288674
225	0x3e979281	0.2960396
226	0x3ea90ce1	0.33017638
227	0xbde76b36	-0.11299746
228	0x3e202438	0.15638816
229	0x3e8ba609	0.27275112
230	0xbe88de78	-0.2673223
231	0xbe6ba393	-0.23011617
232	0xbe6a368b	-0.22872369
233	0x3e479ac6	0.19492635
234	0xbe969a22	-0.2941447
235	0x3e15d1a2	0.1463075
236	0xbcd6bef0	-0.026214093
237	0x3cdb4000	0.026763916
238	0xbea9ea56	-0.33186597
239	0x3ea9b4a9	0.33145645
240	0xbcb7c200	-0.022431374
241	0xbda0b72c	-0.07847437
242	0x3e10562e	0.14095375
243	0xbd139160	-0.036027312
244	0xbe092850	-0.13394284
245	0xbdfa992c	-0.122362465
246	0xbe385598	-0.18001401
247	0xbe1ce88e	-0.15323088
248	0x3de3dedc	0.111264914
249	0xbe0084a8	-0.12550604
250	0x3e9de6ed	0.30840245
251	0xbe8e7688	-0.27824807
252	0xbdbc524c	-0.091953844
253	0x3e3ad4aa	0.18245187
254	0xbe28996b	-0.16464774
255	0xbd322de8	-0.04350081

conv1.bias f4 [32]
0	0xbe43cb68	-0.19120562
1	0x3e41da62	0.18930963
2	0xbdf69090	-0.12039292
3	0xbea9015f	-0.3300886
4	0xbe6ecfc3	-0.23321442
5	0xbe94beae	-0.29051727
6	0x3e5e9f5e	0.21740481
7	0xbea05a92	-0.313191
8	0xbe3ae203	-0.18250279
9	0x3ea58449	0.32327488
10	0xbdb1da4c	-0.08684215
11	0x3e214a16	0.15750918
12	0x3dde0884	0.10841468
13	0x3e8b1725	0.27166095
14	0xbdaf2edc	-0.085538596
15	0x3dee180c	0.1162568
16	0xbe96d3f6	-0.29458588
17	0x3e652e5a	0.22380963
18	0xbda514f4	-0.08060637
19	0x3e28cde8	0.16484797
20	0x3d93bc70	0.07213676
21	0x3df8d89c	0.1215069
22	0xbea27700	-0.31731415
23	0x3d902d60	0.070399046
24	0x3e8650ad	0.26233426
25	0xbea83fcb	-0.3286117
26	0x3e745802	0.23861697
27	0x3e908dcf	0.2823319
28	0xbea70708	-0.32622552
29	0xbd9daeec	-0.07699379
30	0xbe0462c8	-0.12928307
31	0x3c78c0a0	0.015182644

conv2.weight f4 [16, 32, 1, 1]
0	0x3e24b30d	0.16083927
1	0xbe2be5f6	-0.16786942
2	0xbdbee0db	-0.093202315
3	0x3c88fc98	0.016722009
4	0x3e2ed199	0.17072143
5	0x3b0ef4c0	0.0021813363
6	0x3e053337	0.13007818
7	0x3e230373	0.15919285
8	0xbe09cbe6	-0.13456687
9	0xbd7a7356	-0.06114515
10	0xbe15b229	-0.14618744
11	0xbbb96440	-0.0056577027
12	0xbe0d9ec7	-0.138301
13	0x3e187f6f	0.14892362
14	0x3c33ad20	0.010966569
15	0x3e0fdbef	0.14048742
16	0xbd2d80b0	-0.042359054
17	0xbd561ad4	-0.05227168
18	0x3e107e5b	0.14110701
19	0x3e072a65	0.13199766
20	0xbcfddc68	-0.030988887
21	0xbdfdf5f6	-0.12400429
22	0x3e242ad3	0.16031961
23	0xbe17d663	-0.14827876
24	0xbe2e76cf	-0.1703751
25	0xbd357930	-0.044305027
26	0xbd4667c4	-0.048438802
27	0xbde80449	-0.11328942
28	0x3d9a598e	0.075366125
29	0xbe314cbc	-0.17314428
30	0xbddc043c	-0.10742995
31	0xbe2cebe8	-0.16886866
32	0x3d67da74	0.056604818
33	0xbd162330	-0.03665465
34	0xbe011f94	-0.12609702
35	0x3c1f1ec0	0.009711921
36	0x3d072b10	0.033000052
37	0x3dcaab12	0.0989591
38	0x3dfc3b56	0.12316005
39	0xbe29e174	-0.1658991
40	0x3e078c75	0.13237174
41	0x3cc63a18	0.024197623
42	0x3e11a807	0.14224254
43	0xbd062360	-0.03274858
44	0x3d8748ec	0.066057056
45	0x3ca9ba70	0.020718783
46	0x3d69903c	0.05702232
47	0xbe11f544	-0.14253718
48	0x3dc3786a	0.095444515
49	0xbc2aad30	-0.010417268
50	0xbcf22c28	-0.029562071
51	0xbbd59320	-0.006517783
52	0x3e0796c5	0.13241108
53	0xbd2c8ddc	-0.042127475
54	0x3da7d9f2	0.08195867
55	0xbe1a5c26	-0.15074214
56	0x3e03540d	0.12825032
57	0x3d749134	0.05970879
58	0xbe2282f8	-0.15870273
59	0x3dc13622	0.09434153
60	0x3d315610	0.043294966
61	0x3d4e1740	0.05031514
62	0xbe088b5d	-0.13334413
63	0x3d7b0324	0.061282292
64	0x3d136288	0.03598264
65	0x3e16f657	0.14742409
66	0x3d72ebb4	0.059306815
67	0xbdfd07a2	-0.123549715
68	0xbdcafd3b	-0.09911581
69	0x3cd0e300	0.025498867
70	0x3dfca912	0.12336935
71	0x3e231907	0.15927516
72	0xbd8bb8fc	-0.06822392
73	0x3e081b45	0.13291653
74	0xbdb29153	-0.08719125
75	0xbd9accce	-0.07558595
76	0xbe0d4dcf	-0.13799213
77	0x3ce48210	0.02789405
78	0x3ccfb8d0	0.02535668
79	0xbbc8c880	-0.006127417
80	0x3d8968fc	0.06709477
81	0xbd07f530	-0.033192813
82	0xbe21e821	-0.15811206
83	0x3d99f842	0.075180545
84	0x3da67972	0.081286326
85	0x3c666310	0.014061704
86	0x3e3370c9	0.17523493
87	0x3dadd2ee	0.08487497
88	0xbd82a31d	-0.06378768
89	0x3cf20290	0.029542238
90	0xbde1d123	-0.11026218
91	0xbe1c69a8	-0.1527468
92	0xbdcfdcca	-0.10149534
93	0x3d93285c	0.07185432
94	0xbc8c6c38	-0.017141446
95	0xbda23727	-0.07920676
96	0x3d8e14fa	0.06937595
97	0xbc436790	-0.011926547
98	0x3e1e2681	0.15444376
99	0xbe0d5f46	-0.13805875
100	0x3e1e9e01	0.15489961
101	0x3e0cbf05	0.13744743
102	0xbc957750	-0.01824537
103	0x3d7d6234	0.061861232
104	0xbe254191	-0.16138293
105	0xbd9b9aac	-0.07597861
106	0x3e0e7057	0.13910042
107	0xbc77ebb0	-0.015131876
108	0xbd23953c	-0.039937243
109	0x3c3eadf0	0.01163815
110	0xbe083c42	-0.13304237
111	0xbe1fceab	-0.15606181
112	0xbdb95fa3	-0.090514444
113	0x3cad2998	0.021137998
114	0x3b4f9d00	0.0031679273
115	0x3c2812c0	0.010258377
116	0x3da28c4a	0.07936914
117	0x3c801f98	0.015640065
118	0x3cb46808	0.022022262
119	0x3dd53736	0.10410921
120	0xbe019004	-0.12652594
121	0x3cfbefe0	0.03075403
122	0xbe1a0bf8	-0.15043628
123	0xbe02fac4	-0.12790972
124	0xbdee8886	-0.116471335
125	0x3e33bc19	0.17552222
126	0x3c4e01d0	0.012573674
127	0x3daed472	0.085366145
128	0xbc23b5c0	-0.009992063
129	0x3e287f3d	0.16454788
130	0xbe1b6fcf	-0.1517937
131	0xbd425124	-0.047440663
132	0x3d9eb04e	0.07748471
133	0xbe25cb07	-0.1619073
134	0xbbcd37c0	-0.0062627494
135	0xbd4a62cc	-0.049410626
136	0x3de73a0e	0.1129037
137	0xbdb0c0ca	-0.086305216
138	0x3e0e8397	0.13917385
139	0x3e22eacb	0.15909879
140	0x3c5fcf30	0.013660237
141	0xbdf127b6	-0.117751524
142	0xbd40a15c	-0.047028884
143	0x3de726a2	0.112866655
144	0x3d00cf00	0.03144741
145	0x3c940008	0.018066421
146	0xbd72701c	-0.059188947
147	0xbddf2714	-0.108961254
148	0x3e1fdeb3	0.15612297
149	0x3da90b12	0.082540646
150	0x3c8cab88	0.017171636
151	0xbc9d6a88	-0.019215837
152	0x3d02c0ac	0.031922027
153	0x3cc20c08	0.023687378
154	0x3dad7726	0.084699914
155	0x3e293da3	0.16527419
156	0xbe013b39	-0.12620248
157	0xbe14933a	-0.14509287
158	0x3df5ad3a	0.11995931
159	0xbda177fe	-0.07884215
160	0x3c864b80	0.016393423
161	0xbdb5c27a	-0.08874984
162	0xbd64b564	-0.05583705
163	0x3d923238	0.07138485
164	0xbe2872ab	-0.16449992
165	0xbdafcf45	-0.085844554
166	0xbdc62245	-0.09674505
167	0xbcc99b28	-0.024610117
168	0xbcb4bbc0	-0.022062182
169	0x3b2dde00	0.0026530027
170	0x3d80ed20	0.06295228
171	0xbca998c0	-0.02070272
172	0xbdbabeac	-0.09118399
173	0x3d8dacd8	0.06917733
174	0x3d409aa0	0.047022462
175	0xbd8c7fc2	-0.06860305
176	0xbd3f9744	-0.046775118
177	0xbd3e1794	-0.046409205
178	0x3e2a0341	0.16602804
179	0x3ba78b20	0.0051130205
180	0xbde43340	-0.11142588
181	0x3e12ce5d	0.14336534
182	0x3e267209	0.16254438
183	0x3cbfc800	0.023410797
184	0x3e21c879	0.1579913
185	0xbd82bb68	-0.06383401
186	0xbda100c4	-0.07861474
187	0x3dc00bd2	0.093772545
188	0x3dfbf50e	0.123026
189	0xbe2988fe	-0.16556165
190	0xbe268098	-0.16259992
191	0xbdb486c9	-0.08814771
192	0x3c659f60	0.014015049
193	0x3dbc2546	0.09186797
194	0xbe2bfac5	-0.1679488
195	0x3c899f18	0.016799495
196	0xbc6f3dd0	-0.01460214
197	0x3df2ef0a	0.11861999
198	0x3e05c8eb	0.13064925
199	0x3d84be6c	0.064816326
200	0xbe18cbf0	-0.14921546
201	0xbc9f51c8	-0.019448176
202	0xbd7e21b6	-0.062043868
203	0x3c7476d0	0.014920905
204	0x3e142911	0.1446879
205	0xbdad6faa	-0.08468564
206	0xbd4b8ccc	-0.04969482
207	0x3c0b2d10	0.00849463
208	0xbd85459a	-0.06507416
209	0xbb9fb180	-0.0048734546
210	0xbdd15767	-0.10221749
211	0xbc8420d0	-0.016128927
212	0xbe08bbd8	-0.13352907
213	0xbe2e5889	-0.17025961
214	0x3dc9db42	0.09856273
215	0x3e0dc76f	0.13845609
216	0xbd574080	-0.052551746
217	0xbe15d4ba	-0.1463193
218	0x3dcb41d2	0.099246636
219	0x3e04d3f7	0.12971483
220	0xbd1a9c60	-0.037746787
221	0xbdec79b8	-0.115466535
222	0xbe1e3097	-0.15448223
223	0x3e216db1	0.157645
224	0x3df20af6	0.11818497
225	0xbd966f96	-0.07345502
226	0xbd387534	-0.04503365
227	0x3cd51d80	0.026015043
228	0xbdc42d24	-0.095789224
229	0x3deee7c2	0.11665298
230	0x3e213179	0.15741529
231	0x3e21c081	0.1579609
232	0x3e2cbddf	0.16869305
233	0x3e1f1895	0.15536721
234	0xbd21179c	-0.039329156
235	0xbe056f8a	-0.1303083
236	0x3d893c80	0.067009926
237	0xbd8dda63	-0.069264196
238	0x3ca24488	0.019808069
239	0xbd8ed98d	-0.06975088
240	0xbd922927	-0.071367554
241	0xbda4b15a	-0.080416396
242	0xbc9ea2e8	-0.01936479
243	0xbdae66b6	-0.08515684
244	0xbdfad6e2	-0.12248017
245	0x3cd14eb0	0.025550216
246	0x3d443610	0.04790312
247	0x3d6feae4	0.05857362
248	0xbcf24bc0	-0.029577136
249	0xbe1ba8d3	-0.1520112
250	0xbd9e2bf6	-0.07723229
251	0xbc801b90	-0.015638143
252	0x3cd12950	0.025532395
253	0x3e1ca67f	0.15297888
254	0x3d13cd1c	0.03608428
255	0x3df0471a	0.117323115

conv2.bias f4 [16]
0	0xbe291a23	-0.16513877
1	0xbc8bd170	-0.017067641
2	0xbcb89020	-0.022529662
3	0x3ddf69be	0.109088406
4	0xbc5abed0	-0.013351157
5	0x3c18d070	0.009327039
6	0xbde146ec	-0.109998554
7	0x3da0984a	0.07841547
8	0xbdf16fce	-0.11788903
9	0xbe1f7601	-0.15572359
10	0x3d622ee0	0.055220485
11	0x3db8986a	0.09013446
12	0xbdb55f51	-0.08856071
13	0xbe222944	-0.15836054
14	0x3d9c2c32	0.07625617
15	0xbddb9f46	-0.10723738

conv3.weight f4 [1, 16, 5, 5]
0	0xbb6e7750	-0.0036387034
1	0x3cb530e2	0.022118036
2	0x3d460465	0.048344035
3	0xbcfba93d	-0.030720348
4	0x3c65add4	0.014018495
5	0x3c0c35b4	0.008557726
6	0xbd06074d	-0.032721806
7	0xbd193dc3	-0.037412416
8	0xbc650c8c	-0.013980042
9	0xbc967df6	-0.01837061
10	0xbcbe0dcd	-0.02319994
11	0x3ce2b0ca	0.02767219
12	0x3cd4ce82	0.025977377
13	0x3cfa213e	0.03053343
14	0x3c582394	0.013192076
15	0x3cd0765a	0.02544706
16	0xbb239cd0	-0.0024965294
17	0xbbfe5f58	-0.0077628307
18	0xbd409acd	-0.04702263
19	0xbceb0127	-0.028687073
20	0xbbbae2d0	-0.0057033077
21	0x3c540bbc	0.012942251
22	0xbd1bc94e	-0.038033776
23	0xbc1148e0	-0.008867472
24	0xbc77556c	-0.01509605
25	0x3c7bb1bc	0.015362199
26	0x3d085677	0.033285584
27	0x3d3ed7a1	0.04659236
28	0x3d14ca8b	0.036325973
29	0xbd0d9e03	-0.03457452
30	0xbd2a1433	-0.04152317
31	0x3b712800	0.0036797523
32	0xbc780fd8	-0.015140496
33	0xbd099870	-0.03359264
34	0xba9abfa0	-0.0011806376
35	0x3c703af4	0.014662493
36	0xbcf71817	-0.030162854
37	0x3bc4b3b0	0.0060028657
38	0x3b14d380	0.0022709072
39	0xbd4154b7	-0.04719993
40	0x3c1b848c	0.009492051
41	0x3c5be4d4	0.013421256
42	0x3c5f4344	0.013626877
43	0xbb8d2980	-0.0043079257
44	0x3b666380	0.0035154521
45	0xbc7ef654	-0.015561659
46	0x3b88ecd8	0.0041786246
47	0x3d179aeb	0.037012976
48	0xbb70c160	-0.0036736354
49	0xbd26a6e0	-0.04068649
50	0xbcd071ad	-0.02544483
51	0xbcd14857	-0.02554719
52	0x3d4295db	0.047506195
53	0x3cbaede2	0.02281851
54	0xbd413ca5	-0.047176976
55	0xbc6618f8	-0.014044039
56	0x3cc5c892	0.024143491
57	0x3bc82180	0.006107509
58	0xbcb48283	-0.02203489
59	0xbce067c7	-0.027393235
60	0x3d1689f1	0.036752645
61	0x3c3e09a8	0.011598982
62	0x3cd765ba	0.026293624
63	0x3d179081	0.037003044
64	0x3d115233	0.035478782
65	0xbd3b5438	-0.045734614
66	0x3b56f9b0	0.0032802634
67	0x3c935ab2	0.017987583
68	0x3ce1e752	0.027576122
69	0xbd2c077e	-0.041999333
70	0xbcd4de1a	-0.025984813
71	0x3d42ea1d	0.04758655
72	0xbce70637	-0.028201206
73	0xbd3fc5db	-0.04681955
74	0x3cf1f372	0.02953503
75	0x3d3657e9	0.04451743
76	0x3cd1eb32	0.025624845
77	0x3d38ac01	0.04508591
78	0x3ccc4d9e	0.024939355
79	0xbd26351b	-0.04057799
80	0x3cbd8416	0.023134273
81	0xbcd7656d	-0.02629348
82	0x3d109239	0.0352957
83	0x3c892676	0.016741972
84	0xbccb2ee3	-0.02480263
85	0x3c014e00	0.007892132
86	0xbd420a73	-0.047373246
87	0x3d2c13f1	0.042011205
88	0xbcb7f7f0	-0.022457093
89	0xbbace858	-0.005276721
90	0x3d046303	0.032320987
91	0x3cecc1ca	0.028901
92	0x3ae880a0	0.0017738529
93	0xbae0bb00	-0.0017145574
94	0xbcce7f53	-0.025207197
95	0xbc94e580	-0.01817584
96	0xbd39c515	-0.045353968
97	0x3c22ddd4	0.009940583
98	0x3cc1f312	0.023675475
99	0x3d2bd9b9	0.041955683
100	0xbd258f6e	-0.04041999
101	0x3b3c08b0	0.0028691702
102	0x3d26990d	0.040673304
103	0x3d11ae7d	0.035566796
104	0xbc92c18c	-0.017914556
105	0x3c9f7746	0.019466054
106	0xbcd6ff03	-0.026244646
107	0xbc90decc	-0.017684363
108	0xbbccc998	-0.006249618
109	0x3c65c034	0.014022876
110	0x3cbdf772	0.02318928
111	0xbb9eb950	-0.0048438683
112	0x3b2e7c30	0.0026624314
113	0x3cf7bcca	0.030241389
114	0x3d0f1e39	0.034940932
115	0x3d27a5f3	0.040929746
116	0x3d0cb201	0.034349445
117	0x3d3abf99	0.045592878
118	0x3d2c70b3	0.042099666
119	0xbce6426a	-0.02810784
120	0xbd092134	-0.03347893
121	0x3cc2f0f6	0.02379654
122	0xbd3b67eb	-0.0457534
123	0x3d1d86a1	0.03845847
124	0xbc328918	-0.0108969435
125	0x3cbea64a	0.023272652
126	0x3d3eaf4d	0.0465539
127	0xbcdd1077	-0.02698539
128	0xbd43badb	-0.04778562
129	0x3c09b868	0.008405782
130	0x3d0f9b17	0.035060015
131	0xbcbcd597	-0.023051066
132	0xbd139fba	-0.036041
133	0xbd1b0f75	-0.037856538
134	0x3c806156	0.015671413
135	0x3c4471d8	0.011990033
136	0x3bc94198	0.0061418526
137	0x3cdc2d7a	0.026877154
138	0x3d08c4fd	0.033390988
139	0x3c93d5a2	0.018046204
140	0xbc43da0c	-0.011953842
141	0xbd3992aa	-0.045305885
142	0x3cf93ef6	0.03042553
143	0xbd4893e8	-0.04896918
144	0xbd0cf33e	-0.03441166
145	0x3cc0dc62	0.023542587
146	0xbc9903c6	-0.018678557
147	0x3d273c89	0.040829215
148	0xbbe7a390	-0.0070690587
149	0x3d4b4455	0.049625713
150	0x3cfa3bce	0.030546095
151	0x3d00f38f	0.031482276
152	0x3d1ff581	0.03905249
153	0x3d3c0b9d	0.045909513
154	0xbcf375f7	-0.029719336
155	0x3cb6c50a	0.022310752
156	0x3c408020	0.011749297
157	0xbd14c24b	-0.036318105
158	0x3d40ac6f	0.047039445
159	0x3bd3c480	0.0064626336
160	0xbd20f54a	-0.039296426
161	0xbc17fa14	-0.009275932
162	0x3b86cd00	0.0041137934
163	0x3b879100	0.0041371584
164	0x3cdeeb0e	0.027211692
165	0x3b974318	0.0046161525
166	0xbd0677e8	-0.032829195
167	0x3d0781a1	0.033082608
168	0xbc4700c8	-0.012146182
169	0x3c9d387e	0.019191977
170	0x3d27dab9	0.040980075
171	0xbd13d638	-0.036092967
172	0x3cc36ef2	0.023856614
173	0xbd2e5413	-0.04256065
174	0x3cae4332	0.021272276
175	0xbcaac20a	-0.020844478
176	0x3d08f8f9	0.033440564
177	0x3bf71fb0	0.0075416192
178	0x3c25c24c	0.010117125
179	0x3c28eae0	0.010309905
180	0xba604c00	-0.0008556247
181	0xbd09d4a0	-0.03365004
182	0xbcca2637	-0.024676425
183	0x3d2ce0cb	0.042206567
184	0x3c303298	0.01075425
185	0x3d08b2e3	0.033373725
186	0x3c91d0a2	0.01779968
187	0xbc4356ec	-0.011922579
188	0x3d1e610b	0.038666766
189	0x3d492a11	0.049112383
190	0x3d07c7b1	0.033149425
191	0x3d1e246f	0.038608965
192	0xbc30b280	-0.010784745
193	0x3aafd7a0	0.0013415702
194	0x3d1c6449	0.038181577
195	0xbd1535ad	-0.036428142
196	0xbce0baed	-0.027432883
197	0xbd00b64d	-0.031423856
198	0x3d01c889	0.031685386
199	0xbc30e3b8	-0.01079648
200	0xbd07ce28	-0.03315559
201	0xbd21dce0	-0.039517283
202	0xbd01b5d4	-0.031667545
203	0xbb33d460	-0.0027439818
204	0xbd37b277	-0.04484793
205	0xbd09e628	-0.03366676
206	0xbcbb85d3	-0.02289096
207	0x3cc4e0ca	0.024032969
208	0x3d494c5d	0.04914509
209	0xbd12e723	-0.03586496
210	0xbce856f3	-0.028361773
211	0x3d0d3331	0.034472648
212	0x3c8713c2	0.016488913
213	0x3d1d54b9	0.038410876
214	0xbc985f3a	-0.018600095
215	0x3d3199f7	0.043359723
216	0xbd0ce05a	-0.034393646
217	0xbb7a0380	-0.0038149059
218	0xbc03cb0c	-0.008044016
219	0xbd1cc208	-0.03827098
220	0x3d1596d5	0.036520798
221	0x3ca599ae	0.020214882
222	0xbd3dab62	-0.04630602
223	0x3cf37d2a	0.029722769
224	0x3d49667d	0.049170006
225	0x3cc1cdd6	0.02365772
226	0xbcab442d	-0.020906532
227	0xbaa510c0	-0.0012593493
228	0x3c2b3138	0.010448746
229	0xbd09d2fc	-0.033648476
230	0x3bda37a8	0.006659467
231	0x3c9415d2	0.018076811
232	0x3d38b239	0.04509184
233	0xbc21a860	-0.009866804
234	0xbc845fca	-0.016158957
235	0x3d0d8ec9	0.03456
236	0xbd32d54f	-0.04366046
237	0x3c859a96	0.016309064
238	0x3be9c9b0	0.0071346387
239	0xbbd1e780	-0.006405771
240	0xbbe7f568	-0.0070788153
241	0x3d49ddb9	0.049283717
242	0xbcfaa2bd	-0.030595178
243	0x3c2a1ea0	0.010383278
244	0xbc415cd4	-0.011801917
245	0xbd46de4d	-0.048551846
246	0x3c86e62e	0.01646718
247	0xbd19f1a5	-0.037583966
248	0x3cfdb036	0.030967813
249	0x3c87b50a	0.016565818
250	0x3d029e67	0.031889345
251	0x3d2bef31	0.041976158
252	0x3cc49baa	0.024000008
253	0xbd13d323	-0.036090028
254	0xbca37be7	-0.019956542
255	0xbd06a585	-0.032872695

conv1_desnet.weight f4 [24, 2, 3, 3]
0	0x3cdcdb3d	0.02696001
1	0xbcbd7949	-0.023129122
2	0xbe76f607	-0.2411729
3	0xbe4ca95e	-0.19986483
4	0x3bb46fc7	0.005506489
5	0xbe89ca98	-0.2691238
6	0x3e236a24	0.15958458
7	0x3dfe71c6	0.12424044
8	0x3e102a95	0.14078744
9	0xbdaff864	-0.085922986
10	0x3da706f3	0.08155622
11	0x3e356508	0.17714322
12	0xbdd4b32d	-0.103857376
13	0x3dd8b6b7	0.10581725
14	0x3d613ea4	0.05499138
15	0xbd2e1795	-0.04250296
16	0xbcc3273a	-0.023822416
17	0x3dcc517b	0.09976479
18	0xbe19a548	-0.15004456
19	0xbd3c8240	-0.046022654
20	0x3d0398b4	0.03212805
21	0xbd45079c	-0.04810296
22	0xbd4a6588	-0.049413234
23	0xbe3c29ed	-0.18375368
24	0x3dc85bd2	0.09783138
25	0x3e60d64b	0.21956746
26	0xbd568630	-0.052374065
27	0x3e25e069	0.16198887
28	0xbe186b26	-0.14884624
29	0x3dec2c9f	0.11531948
30	0xbd2f78a1	-0.04283965
31	0xbcea6f98	-0.028617665
32	0xbe7c769a	-0.24654618
33	0x3de8363f	0.113384716
34	0x3ab54b28	0.0013831602
35	0x3da50da5	0.08059243
36	0xbe29422e	-0.16529152
37	0xbd356eba	-0.04429505
38	0x3dfd2bc5	0.12361864
39	0x3ddf3995	0.10899655
40	0x3e3edad6	0.18638167
41	0xbd92430c	-0.071416944
42	0xbdd34ed1	-0.103177674
43	0xbe15126b	-0.14557807
44	0xbd69bbb8	-0.05706379
45	0x3d789a7f	0.060694214
46	0xbe82f803	-0.25579843
47	0xbc2acc75	-0.010424723
48	0x3e0e783e	0.13913056
49	0x3decce93	0.115628384
50	0x3d70e5f0	0.058813035
51	0x3c59eeed	0.013301593
52	0x3cd1124a	0.025521416
53	0x3d212959	0.039346073
54	0xbd95e362	-0.073187605
55	0xbe18c2ac	-0.14918011
56	0xbe3e81c7	-0.18604194
57	0x3d499bce	0.049220853
58	0xbe356579	-0.1771449
59	0x3d462675	0.04837652
60	0x3d2c574d	0.042075444
61	0x3e4d0b2f	0.20023797
62	0xbdba3244	-0.09091619
63	0xbdb0378f	-0.08604347
64	0x3e4cf15c	0.20013946
65	0xbdcccb2f	-0.09999692
66	0xbc35ebdc	-0.011103597
67	0xbbb210ad	-0.005434117
68	0xbd70d7ac	-0.05879943
69	0xbde2ff70	-0.11083877
70	0xbbdd64ce	-0.0067564016
71	0x3cbef622	0.023310725
72	0x3d142e6e	0.03617709
73	0x3e286b4e	0.16447183
74	0xbdbecfcb	-0.09316977
75	0x3db984c0	0.09058523
76	0x3e062820	0.13101244
77	0xbe4f0afc	-0.20219034
78	0xbda646fb	-0.08119007
79	0x3e17db0d	0.14829655
80	0x3d9f88d5	0.077897705
81	0xbe6bd3de	-0.2303004
82	0x3cd8e59c	0.026476674
83	0x3d9c92e0	0.07645202
84	0x3c920b05	0.01782752
85	0x3d47239f	0.048617955
86	0x3ced094d	0.028935099
87	0xbcd11558	-0.025522873
88	0x3d7ecaa0	0.062204957
89	0x3ddfa8e1	0.10920883
90	0xbde964ae	-0.11396156
91	0xbdb5d62e	-0.08878742
92	0xbc8e120a	-0.017342586
93	0xbb1ab426	-0.0023605912
94	0xbe29fcd1	-0.16600348
95	0x3e22995d	0.15878816
96	0xbe8d8926	-0.27643698
97	0xbc824a50	-0.015904576
98	0x3de49d78	0.11162847
99	0xbc72528c	-0.0147901885
100	0xbdf287c7	-0.11842304
101	0x3d391d1b	0.045193773
102	0xbd4d6fdf	-0.050155517
103	0x3cdc639a	0.026902962
104	0x3d8e929c	0.06961557
105	0x3e1caab8	0.15299499
106	0xbe2f968d	-0.17147274
107	0xbdfcc840	-0.12342882
108	0xbe1d0bee	-0.15336582
109	0xbe02d67f	-0.12777136
110	0x3d84b41f	0.06479668
111	0x3e7e9517	0.24861561
112	0x3c74205f	0.014900296
113	0xbdfc76a2	-0.12327315
114	0x3d3f5e6d	0.04672091
115	0x3cc0b450	0.02352348
116	0xbc09f991	-0.008421318
117	0xbe62288a	-0.22085777
118	0x3e1cdf5c	0.1531958
119	0xbe29059d	-0.16506048
120	0xbe94a838	-0.2903459
121	0x3e357072	0.17718676
122	0x3d15448e	0.036442332
123	0xbd53df61	-0.051726703
124	0x3d57ddc4	0.052701727
125	0x3e9a1b1a	0.30098802
126	0xbe49bd63	-0.19701152
127	0xbda015ec	-0.07816681
128	0xbe840d55	-0.25791422
129	0x3df16cad	0.117883064
130	0x3e05425c	0.13013595
131	0xbd127bfe	-0.03576278
132	0x3d8f23b3	0.06989231
133	0x3e7199e2	0.23593858
134	0x3ccd64ac	0.025072418
135	0xbe0c8dac	-0.13725919
136	0xbe9a962b	-0.30192694
137	0xbe8a6dd6	-0.27036923
138	0x3e2d0659	0.16896953
139	0x3e00c2ee	0.1257436
140	0x3d276e93	0.040876936
141	0xbcbd1d9e	-0.023085412
142	0x3e78af5b	0.24285643
143	0x3e1de049	0.15417589
144	0xbbac9429	-0.0052666855
145	0x3dc0c1ef	0.0941199
146	0x3dc5826c	0.096440166
147	0x3d10817b	0.035279732
148	0xbd1c89f7	-0.03821751
149	0x3c0573ef	0.0081453165
150	0xbce42020	-0.02784735
151	0x3da7e528	0.08198005
152	0xbc74d51e	-0.014943389
153	0x3da0f517	0.07859247
154	0xbd2ca429	-0.042148743
155	0x3d92234b	0.07135638
156	0x3e32ffba	0.17480364
157	0xbe1e03af	-0.15431093
158	0xbd6e295b	-0.05814491
159	0x3e1c5b51	0.1526921
160	0xbd3f7bee	-0.046749048
161	0xbd46ed8e	-0.048566394
162	0xbea28886	-0.31744784
163	0xbd2a1d08	-0.041531593
164	0x3c276d76	0.010218969
165	0xbe75b631	-0.23995282
166	0x3d5c39a1	0.053765897
167	0x3e5c07a3	0.21487288
168	0x3db3c81f	0.087784044
169	0x3e661ff6	0.2247313
170	0x3d0e2880	0.034706593
171	0xbe4c641a	-0.1996006
172	0x3e79db39	0.24400033
173	0x3e4d7083	0.20062451
174	0xbd9d119b	-0.076693736
175	0xbdcafe04	-0.09911731
176	0xbd754117	-0.059876528
177	0xbd09b040	-0.03361535
178	0xbdfee16b	-0.12445339
179	0x3e04b990	0.12961411
180	0x3e22b78b	0.15890329
181	0x3e493e9e	0.19652793
182	0x3e240d24	0.16020638
183	0xbe656322	-0.22401097
184	0xbe2e1e60	-0.17003775
185	0x3de7d14c	0.11319217
186	0x3da14762	0.07874943
187	0xbeaaadd3	-0.33335742
188	0x3ce94be5	0.028478572
189	0xbe308936	-0.17239842
190	0xbd8a6a18	-0.06758517
191	0xbe296028	-0.16540587
192	0x3e745856	0.23861822
193	0x3e5f3973	0.21799259
194	0xbd8b2a57	-0.06795185
195	0xbdcc66a6	-0.09980516
196	0x3d307ad1	0.043085877
197	0x3d9a28d6	0.0752732
198	0x3e429c5a	0.19004956
199	0x3d4bea6a	0.0497841
200	0x3b01f3e3	0.0019829206
201	0xbdeb316d	-0.114840366
202	0x3befb2f3	0.0073150336
203	0x3e3916e7	0.18075143
204	0xbe1419d5	-0.14462979
205	0x3e11c869	0.14236607
206	0xbdd5e6ae	-0.10444389
207	0x3d9dd181	0.07705975
208	0xbe28173e	-0.16415116
209	0xbcde9831	-0.02717218
210	0xbe377f55	-0.17919667
211	0x3dedef36	0.116178915
212	0xbddd97da	-0.10819979
213	0x3e707584	0.23482329
214	0xbe0a36cb	-0.13497464
215	0xbc03656b	-0.008019785
216	0x3e2c350f	0.16817115
217	0xbdd36b8c	-0.10323247
218	0x3e786dd5	0.24260648
219	0xbe8669c2	-0.26252562
220	0x3d85e20b	0.06537255
221	0xbdcc674c	-0.0998064
222	0xbdf81bc6	-0.12114672
223	0xbc721ca1	-0.0147773335
224	0x3dfc19c3	0.12309601
225	0xbdb9ead6	-0.090779945
226	0xbe481986	-0.19540986
227	0x3e869bcd	0.26290742
228	0x3d98a97f	0.07454204
229	0x3d34576c	0.044028684
230	0xbdc80948	-0.09767395
231	0xbcf8eb7d	-0.030385727
232	0xbe568d75	-0.20952399
233	0x3e7f2bd5	0.24919064
234	0x3df8ee8e	0.12154876
235	0xbd12a0ab	-0.035797756
236	0x3dc9e3d1	0.09857906
237	0x3c87e9be	0.01659095
238	0x3db763bd	0.089545704
239	0x3e2a3789	0.16622747
240	0xbda963fb	-0.08271023
241	0xbe400467	-0.1875168
242	0xbe473363	-0.19453196
243	0x3e8e40f6	0.27783936
244	0x3e327c43	0.17430215
245	0x3e3eb72b	0.1862456
246	0xbdd8d493	-0.1058742
247	0xbd134758	-0.03595671
248	0xbddd921a	-0.10818882
249	0xbe656ded	-0.22405215
250	0xbde729b3	-0.1128725
251	0xbd510bf0	-0.051036775
252	0x3de3ba6e	0.11119543
253	0x3d5a166f	0.05324405
254	0x3dbc5cea	0.091974095
255	0xbe8090e9	-0.25110558

singleLayer1.conv1.weight f4 [12, 24, 3, 3]
0	0xbd940255	-0.07227007
1	0xbcedee99	-0.029044436
2	0xbcff2fef	-0.031150786
3	0xbda9c8f8	-0.08290285
4	0x3be75ffd	0.0070610032
5	0x3c8ba682	0.01704717
6	0xbd1e547c	-0.03865479
7	0x3daf964b	0.08573588
8	0xbcdbb4b6	-0.026819568
9	0xbc72e32e	-0.014824672
10	0x3b59e57c	0.0033248356
11	0x3db41094	0.087922245
12	0xbd12d923	-0.03585161
13	0x3c7bf06f	0.015377148
14	0x3dc06d92	0.09395899
15	0x3c7f204b	0.015571664
16	0x3d0551f9	0.03254888
17	0xbca81a49	-0.020520346
18	0xbddfea22	-0.10933329
19	0xbe2fd46e	-0.17170879
20	0xbd0a375b	-0.033744197
21	0xbd518861	-0.05115545
22	0xbdb4ece6	-0.08834247
23	0x3b47d679	0.0030492826
24	0x3d8f4058	0.069946945
25	0x3ce4cf1e	0.027930792
26	0xbcbf7381	-0.023370506
27	0xbcf97539	-0.030451404
28	0x3bbc72a5	0.0057509714
29	0x3cbed3ea	0.023294408
30	0x3d7a3d1f	0.061093446
31	0xbcb52df4	-0.022116639
32	0x3d6f01eb	0.05835144
33	0x3d98a75a	0.07453795
34	0x3d162120	0.036652684
35	0x3d415368	0.047198683
36	0x3d277a1d	0.04088794
37	0x3cb6e4fe	0.022325989
38	0x3d8bc12b	0.06823953
39	0xbdb50195	-0.088381924
40	0x3d461346	0.048358224
41	0xbcab4509	-0.020906942
42	0xbd803ce6	-0.062616155
43	0xbca7f16c	-0.020500861
44	0x3c83d596	0.016093057
45	0xbcec9096	-0.028877538
46	0xbc985daf	-0.01859936
47	0xbd420292	-0.047365732
48	0xbd83f429	-0.06443054
49	0xbd0cbf83	-0.034362327
50	0x3d1a84f0	0.037724435
51	0x3ce81e95	0.028334895
52	0xbc92e007	-0.01792909
53	0x3cc18a9e	0.023625668
54	0x3ca72540	0.020403504
55	0xbd23015a	-0.03979621
56	0xbcb136ef	-0.02163264
57	0x3c428abe	0.011873899
58	0x3d4d1650	0.050070107
59	0x3d65fbe8	0.05614844
60	0x3cc2060b	0.023684522
61	0xb8e30cf2	-0.00010826615
62	0x3cf7c702	0.030246262
63	0xbdfc6ce6	-0.12325458
64	0x3d928ee1	0.07156158
65	0xbcebda88	-0.028790727
66	0x3cf2dda0	0.029646695
67	0x3d2b47e7	0.04181662
68	0x3d507b08	0.05089858
69	0x3c07eb30	0.008295819
70	0xbd8a772f	-0.06761014
71	0xbe0bfe46	-0.13671216
72	0xbd798b45	-0.060923833
73	0xbd8f7356	-0.070044205
74	0xbd8ffe5a	-0.070309356
75	0x3d82bd98	0.063838184
76	0xbdd882f5	-0.10571853
77	0xbb2943f6	-0.0025827861
78	0xbd42f0a7	-0.047592785
79	0xbccbca75	-0.024876812
80	0xbd34ff2a	-0.044188656
81	0x3c981ae0	0.018567502
82	0xbd6b8bb3	-0.057506274
83	0xbd893c8d	-0.06701002
84	0xbcce19b8	-0.025158748
85	0x3d0d20d1	0.034455124
86	0xbd8c4751	-0.0684954
87	0xbb19da20	-0.002347596
88	0x3bab279a	0.0052232267
89	0x3ccb66c9	0.024829285
90	0xbd285959	-0.041100834
91	0xbde5db0f	-0.11223423
92	0xbd49e9fd	-0.049295414
93	0x3e400080	0.1875019
94	0xbd9b25c8	-0.075755656
95	0x3e00658a	0.12538734
96	0x3da850e0	0.08218551
97	0xbe62afb3	-0.22137336
98	0xbd082095	-0.033234198
99	0x3d2d2b3f	0.04227757
100	0xbb561fb6	-0.003267271
101	0x3ca56e5d	0.020194227
102	0x3db101ca	0.08642919
103	0x3d98e7d4	0.07466093
104	0x3db80dfe	0.08987044
105	0x3d19340c	0.03740315
106	0x3c629a14	0.01383068
107	0xbc8bb2cc	-0.01705303
108	0x3be51d1b	0.006991995
109	0xbcd6c86a	-0.026218612
110	0x3c9e9b34	0.019361116
111	0x3dff3fe6	0.124633595
112	0x3c37d301	0.011219741
113	0x3d3b7f31	0.045775596
114	0xbda7daac	-0.08196005
115	0xbd0bec2e	-0.034160785
116	0x3cab591f	0.02091652
117	0x3c58f6e9	0.013242462
118	0xbd755066	-0.059891127
119	0xbe0a5f6b	-0.13512962
120	0xbb997b22	-0.004683868
121	0x3d3b08ef	0.045662817
122	0x3d8a3ae8	0.06749517
123	0x3de73082	0.11288549
124	0x3dfaf987	0.12254625
125	0x3e6bef61	0.23040535
126	0xbd9fd915	-0.07805077
127	0x3d52b1f1	0.05143923
128	0xbc10827f	-0.008820175
129	0x3e38e143	0.1805468
130	0x3dd06326	0.10175161
131	0x3c129812	0.008947389
132	0xbcd51a4b	-0.026013514
133	0xbe178288	-0.14795887
134	0xbe0e6994	-0.13907462
135	0x3d9fca76	0.07802288
136	0x3c8a2e32	0.01686773
137	0x3cd4e847	0.025989665
138	0x3d82fbc7	0.06395679
139	0x3c07c541	0.008286775
140	0xbbaa732e	-0.005201719
141	0x3c09dac8	0.008413978
142	0x3c5dc75a	0.013536299
143	0xbc095e19	-0.008384251
144	0xbe3110ff	-0.1729164
145	0x3cc87788	0.02447106
146	0x3c444264	0.011978719
147	0xbd0af0e3	-0.033921134
148	0x3c356de4	0.011073563
149	0x3c5a8542	0.013337435
150	0xbd0cd447	-0.03438213
151	0x3d31c655	0.043402035
152	0xbcd6a080	-0.02619958
153	0x3d7b846b	0.06140558
154	0xbcf771c6	-0.030205619
155	0xbd45b4ac	-0.048268005
156	0x3c351afe	0.011053799
157	0xbdb78eb4	-0.08962765
158	0x3d2be528	0.041966587
159	0xbced096d	-0.028935159
160	0x3d086e9f	0.03330862
161	0x3d4cc243	0.04998995
162	0x3d686da9	0.056745205
163	0x3c069c55	0.008215983
164	0xbd989c02	-0.07451631
165	0x3d248454	0.04016526
166	0xbd306d46	-0.04307296
167	0xbc897192	-0.016777787
168	0x3d61dd22	0.05514253
169	0x3be48e1b	0.006974948
170	0xbd163070	-0.036667287
171	0x3d46d64c	0.048544213
172	0x3c9559ab	0.018231234
173	0x3dad0707	0.08448606
174	0x3d91b016	0.07113664
175	0xbcbc7c2b	-0.023008427
176	0x3d6fb810	0.058525145
177	0x3cb65089	0.022255199
178	0x3da73d92	0.081660405
179	0x3d96c9ac	0.073626846
180	0xbc434557	-0.011918387
181	0xbd28cba9	-0.04120985
182	0xbcbb4e1e	-0.022864398
183	0x3ce48541	0.027895572
184	0xbd39aec9	-0.045332704
185	0xbd57957d	-0.052632798
186	0xbc83ffde	-0.016113218
187	0x3be616aa	0.0070217447
188	0xbc274ea9	-0.010211625
189	0x3df7fc9f	0.121087305
190	0x3c02f039	0.007991844
191	0xbd862f81	-0.065520294
192	0x3d23949d	0.03993665
193	0x3cdf9311	0.027291806
194	0x3d5a3b80	0.0532794
195	0x3e1f1fff	0.1553955
196	0x3dd15bf7	0.10222619
197	0x3e34b5ae	0.1764743
198	0xbd2e7318	-0.04259023
199	0xbdcb4a59	-0.0992629
200	0xbe14f55a	-0.14546719
201	0x3da42f93	0.080168866
202	0x3d63c710	0.055609763
203	0x3e0e89fd	0.13919826
204	0x3e1539bc	0.14572805
205	0x3e1392ee	0.14411518
206	0x3e4bccce	0.19902346
207	0x3c95e674	0.018298365
208	0x3cf47db6	0.0298451
209	0xbd49a095	-0.04922541
210	0x3bc8e98f	0.006131358
211	0x3cb062c3	0.021531468
212	0xbd89954b	-0.067179285
213	0x3d94a7f7	0.07258599
214	0xbd8724f0	-0.06598842
215	0x3d044994	0.032296732
216	0x3d6aa412	0.057285376
217	0x3cf3d35b	0.029763868
218	0xbd121d97	-0.03567275
219	0xbca6efd9	-0.02037804
220	0xbd9f2cab	-0.077721916
221	0x3d518049	0.051147733
222	0x3d90952f	0.070597045
223	0x3b049c8f	0.0020234918
224	0x3ccdf770	0.025142401
225	0x3d59de36	0.053190432
226	0xbd498cac	-0.04920642
227	0x3d49b63f	0.04924607
228	0x3d8917d8	0.06694001
229	0xbcd32a81	-0.025777103
230	0xbdaab546	-0.083353564
231	0x3b454f5a	0.0030107112
232	0xbd56007a	-0.05224655
233	0x3d874d5d	0.06606553
234	0xbcbc0f80	-0.02295661
235	0x3d6432d7	0.055712547
236	0x3c6203d3	0.013794857
237	0xbcce466f	-0.02518007
238	0xbc533854	-0.012891848
239	0x3dc606a9	0.09669239
240	0xbe006839	-0.12539758
241	0xbc56d074	-0.013111223
242	0x3c7e49a8	0.015520491
243	0x3c5f1a2c	0.01361708
244	0xbd869e90	-0.06573212
245	0xbcfef776	-0.031123858
246	0x3e09ad80	0.13445091
247	0xbd011e4d	-0.031523038
248	0x3cd7d036	0.0263444
249	0x3cde4797	0.027133746
250	0x3da8b74a	0.082380846
251	0x3caeb1eb	0.021325072
252	0x3d752677	0.059851136
253	0x3c009038	0.007846884
254	0x3c5df7b9	0.013547831
255	0x3d106f3b	0.035262328

singleLayer2.conv1.weight f4 [12, 36, 3, 3]
0	0xbd129333	-0.03578491
1	0xbcda018d	-0.026612068
2	0xbce3bec0	-0.027800918
3	0xbcdf07e8	-0.02722545
4	0x3b8eb93e	0.0043555787
5	0xbd31a2fe	-0.043368332
6	0x3d158ee5	0.036513228
7	0x3ce7162d	0.028208816
8	0xbbc81d6c	-0.006107023
9	0x3d8cc48a	0.06873424
10	0x3ce2019a	0.027588654
11	0xba70d5ee	-0.00091871514
12	0xbc903a37	-0.017605884
13	0xbd2e534b	-0.042559903
14	0xbdba8050	-0.09106505
15	0xbd829164	-0.06375387
16	0xbd41c153	-0.04730351
17	0x3d20b348	0.039233476
18	0xbcdf3c54	-0.027250446
19	0xbbc81649	-0.006106172
20	0xbda4b53c	-0.0804238
21	0xbd00ce6e	-0.031446867
22	0xbc0f4d97	-0.008746526
23	0x3d72c76b	0.05927221
24	0x3d57d691	0.05269486
25	0x3db4b18d	0.088229276
26	0xbc609bcf	-0.013709023
27	0x3cd9070e	0.026492622
28	0xbd8c1e4a	-0.06841715
29	0xbdbf7cef	-0.09350001
30	0x3caa8446	0.020815026
31	0x3c62e893	0.013849395
32	0xbdaf44bb	-0.08558031
33	0x3daf9f95	0.0857536
34	0x3d9ff40d	0.07810221
35	0x3cbb6c87	0.022878898
36	0xbd3809bc	-0.04493116
37	0xbd78ee20	-0.06077397
38	0x3cb0be79	0.0215752
39	0xbd2799fd	-0.04091834
40	0xb9b07003	-0.0003365279
41	0xbc64830e	-0.0139472615
42	0xbac02007	-0.0014657982
43	0x3d1e6cba	0.03867791
44	0xbd3b11fa	-0.04567144
45	0xbd94c16c	-0.07263455
46	0x3da38f38	0.07986301
47	0x3cec6aea	0.028859574
48	0xbcfa78b6	-0.030575138
49	0xbc3a9c66	-0.011389827
50	0xbca2c97e	-0.01987147
51	0x3c351b09	0.011053809
52	0x3c7f7b9e	0.0155934375
53	0xbbb6819d	-0.0055696503
54	0xbd7a79d7	-0.06115135
55	0xbd115c3f	-0.035488363
56	0x3e2704c5	0.16310413
57	0xbc2fd523	-0.010731968
58	0x3c1208d6	0.008913239
59	0x3d06c4ed	0.032902647
60	0x3db30e2a	0.08742936
61	0xba76b2fd	-0.00094108266
62	0xbdf660c0	-0.12030172
63	0x3e37b0e4	0.17938572
64	0x3da270fd	0.07931707
65	0x3d5517e0	0.052024722
66	0x3e0f4cf9	0.13994206
67	0x3e44d47f	0.19221686
68	0xbd31891c	-0.04334365
69	0x3be9b381	0.0071319942
70	0x3e690b0d	0.22758122
71	0xbd07d527	-0.033162262
72	0x3e11a6f1	0.1422384
73	0x3d93b64a	0.07212503
74	0x3c2b48f6	0.010454407
75	0x3d6499bc	0.055810675
76	0xbc4d29dd	-0.012522188
77	0xbb8365ef	-0.004009954
78	0xbd8ab9c7	-0.067737155
79	0xbd93a39e	-0.07208942
80	0xbc4e3c5b	-0.012587632
81	0x3c4b925c	0.0124250315
82	0x3d874bb6	0.066062376
83	0x3e1ea859	0.15493907
84	0x3cc1ad59	0.023642229
85	0x3c1e53be	0.00966352
86	0x3e3dacc8	0.18522942
87	0x3df24638	0.118297994
88	0x3d3e5cf8	0.04647538
89	0x3cbb6950	0.022877365
90	0x3d848342	0.06470348
91	0xbc735a07	-0.014853007
92	0xbe3d6e1e	-0.18499038
93	0x3cb12314	0.021623172
94	0x3e269d74	0.16271001
95	0xbce717cc	-0.02820959
96	0xbe24ddac	-0.16100186
97	0x3e4beca9	0.19914497
98	0x3ccc7e6f	0.024962632
99	0x3d06bff1	0.032897893
100	0x3d9f03d5	0.07764403
101	0x3de9f08b	0.11422833
102	0xbd3cc06f	-0.046081956
103	0xbd1d144d	-0.03834944
104	0x3d772883	0.06034137
105	0xbd90b58a	-0.07065876
106	0xbd279a9e	-0.04091894
107	0x3cc220d1	0.023697289
108	0x3e45d4da	0.19319478
109	0x3d7a8813	0.061164927
110	0xbb235fc4	-0.0024928907
111	0x3b46e112	0.0030346555
112	0xbd720226	-0.05908408
113	0xbe091d23	-0.13390021
114	0x3e3d10fd	0.18463512
115	0xbe4aa1f2	-0.1978834
116	0xbe452ee8	-0.19256175
117	0xbdb860d9	-0.09002847
118	0xbde6e22f	-0.1127361
119	0xbd8d5b6a	-0.069022015
120	0xbcdc241d	-0.026872689
121	0xbe56fe33	-0.20995407
122	0xbd12e729	-0.035864983
123	0xbd93a152	-0.07208504
124	0xbe83b19b	-0.2572144
125	0x3e329e66	0.17443237
126	0xbd3e6ca7	-0.046490338
127	0xbde6873f	-0.11256265
128	0xbd2c0c74	-0.042004064
129	0x3c2f2520	0.010690004
130	0xbd368df8	-0.044568986
131	0x3cdad1fc	0.026711456
132	0x3d6de2d6	0.058077656
133	0x3de0fbfe	0.10985564
134	0x3d8aebfa	0.0678329
135	0x3aa20040	0.0012359694
136	0x3d1e7253	0.038683247
137	0xbd053d22	-0.032529004
138	0x3d023775	0.03179117
139	0xbc0bcfd5	-0.008533438
140	0xbd4aa09b	-0.04946957
141	0x3d028f92	0.0318752
142	0xbdb9bbcf	-0.09069025
143	0xbdfa63c8	-0.12226063
144	0x3b1eacad	0.002421181
145	0xbd8829d7	-0.06648605
146	0xbd3c6da3	-0.046002995
147	0xbcf53499	-0.029932307
148	0x3d5e6d42	0.054303415
149	0x3ad68d9d	0.0016369108
150	0xbb084b0f	-0.0020796692
151	0x3d4564b8	0.048191756
152	0x3becf83a	0.0072317393
153	0x3d08ba5a	0.033380844
154	0x3d7b04f5	0.061284024
155	0xbdc32fd2	-0.095306054
156	0x3bee22ad	0.0072673173
157	0xbd9e5376	-0.07730763
158	0xbdc5829c	-0.096440524
159	0xbc094123	-0.008377346
160	0xbd9facad	-0.07796607
161	0x3da5f3ba	0.08103128
162	0x3c4da1cc	0.012550782
163	0xbd11ba00	-0.035577774
164	0xbb4a4948	-0.0030866433
165	0xbc4d6679	-0.012536638
166	0xbddeef61	-0.10885502
167	0x3aa3a6d1	0.0012485628
168	0xbd12d21f	-0.03584492
169	0xbe21d73a	-0.15804759
170	0x3d9405f0	0.07227695
171	0xbb93a92e	-0.004506252
172	0x3db25e42	0.087093845
173	0x3d6bb8f6	0.05754944
174	0xbd4c3cbf	-0.04986262
175	0x3d60297a	0.054727055
176	0x3c1492f2	0.009068238
177	0xbc3b9158	-0.011448227
178	0x3c6d22bb	0.014473612
179	0x3d56c2f0	0.052432
180	0xbd65c074	-0.05609174
181	0x3c422735	0.011850168
182	0x3d852436	0.06501047
183	0xbd79ca3c	-0.06098388
184	0x3d217bd5	0.039424736
185	0x3cfaa529	0.030596333
186	0xbc381467	-0.011235333
187	0xbc788517	-0.01516845
188	0x3d3223a3	0.043491017
189	0x3d0ef24a	0.034899034
190	0x3e335c53	0.17515688
191	0xbd0d3c73	-0.034481477
192	0x3e50c621	0.2038808
193	0xbd806504	-0.06269267
194	0xbdc5efd2	-0.09664883
195	0x3e404025	0.18774469
196	0xbd555a0e	-0.052087836
197	0xbd453207	-0.048143413
198	0x3d66afbe	0.056319945
199	0xbe43fcd7	-0.1913942
200	0xbe4f9a14	-0.2027362
201	0x3b25cfe3	0.0025300912
202	0xbdec746e	-0.11545645
203	0x3ded9a65	0.11601714
204	0xbda7d356	-0.08194606
205	0x3dcc69fa	0.09981151
206	0x3e4ff6de	0.20309016
207	0xbe40090d	-0.18753453
208	0xbda430e1	-0.080171354
209	0xbdc2073d	-0.09474037
210	0x3bc0ddee	0.005885831
211	0xbcef5484	-0.029215105
212	0xbda63e36	-0.081173345
213	0xbd70bbc0	-0.058772802
214	0xbd7286f4	-0.059210733
215	0xbd06995c	-0.0328611
216	0xbd71e629	-0.05905739
217	0xbdb00597	-0.08594816
218	0x3d93a10b	0.07208451
219	0xbd8c4193	-0.06848445
220	0x39dad358	0.00041737664
221	0x3ce445c8	0.027865306
222	0xbd0f7a5b	-0.035028797
223	0x3c3d77b1	0.011564181
224	0xbd3fd683	-0.046835434
225	0xbe03be73	-0.1286562
226	0x3d5de6c5	0.054175157
227	0xbdb552ce	-0.08853684
228	0xbe194484	-0.14967543
229	0x3c955cea	0.018232781
230	0xbd860d49	-0.06545503
231	0xbd980cf3	-0.07424345
232	0x3b0a5830	0.0021109693
233	0x3d267482	0.040638454
234	0x3da56bc5	0.08077196
235	0x3ea9955c	0.33121765
236	0x3dbf348f	0.09336197
237	0xbe0dbc7e	-0.13841435
238	0x3d74857a	0.059697606
239	0xbd7e62c0	-0.062105894
240	0xbe1896d8	-0.14901292
241	0xbdefe5f2	-0.117137805
242	0xbd2fd47e	-0.042927258
243	0x3cec1049	0.02881636
244	0x3dd97e0a	0.10619743
245	0xbd31765f	-0.043325778
246	0x3e328d54	0.17436725
247	0x3d4c0ca5	0.049816746
248	0x3db04ba6	0.08608179
249	0x3cbc9b2a	0.023023207
250	0xbe27cb1a	-0.16386071
251	0xbcd1651a	-0.025560904
252	0x3d0107dc	0.031501636
253	0xbd4f1a17	-0.05056199
254	0x3e03ec89	0.128832
255	0x3d832932	0.06404342

singleLayer3.conv1.weight f4 [12, 48, 3, 3]
0	0xbcc85d02	-0.024458412
1	0xbd245033	-0.040115546
2	0x3cafa299	0.021439837
3	0x3b56cfe2	0.0032777716
4	0xbd7b5552	-0.061360665
5	0xbd9747fa	-0.07386775
6	0x3ce780c2	0.028259639
7	0xbc8362ec	-0.01603838
8	0xbc389e91	-0.011268274
9	0xbba578a7	-0.0050497833
10	0xbd584135	-0.05279656
11	0x3d90083e	0.07032822
12	0x3b94cdae	0.0045411205
13	0x3c305c23	0.010764155
14	0x3bcc098a	0.006226723
15	0x3dd58482	0.104256645
16	0x3d1f6589	0.03891519
17	0x3d1596dd	0.036520828
18	0xbdaf5615	-0.08561341
19	0xbd9b725d	-0.075901724
20	0xbd14300b	-0.03617863
21	0x3c21ee77	0.009883515
22	0x3c9534e1	0.018213691
23	0x3c48a685	0.012246733
24	0x3d9da47f	0.07697391
25	0xbd31fc64	-0.04345359
26	0xba18227a	-0.0005803477
27	0xbc8921eb	-0.016739806
28	0xbc07bfed	-0.008285505
29	0xbcca9928	-0.024731234
30	0xbba86472	-0.005138927
31	0x3cd2efba	0.025749076
32	0xbc1d3b45	-0.0095966505
33	0x3c2debed	0.010615331
34	0x3cbf3743	0.02334178
35	0xbd5ac4c3	-0.053410303
36	0x3da5fcb9	0.08104844
37	0x3dee5754	0.1163775
38	0x3daedf81	0.08538724
39	0x3d659bc4	0.056056753
40	0x3d4b6913	0.049660753
41	0x3dac213f	0.08404779
42	0x3dae0ddf	0.084987395
43	0x3ddaab6b	0.10677227
44	0x3d8fc6fd	0.07020376
45	0x3d4dc070	0.05023235
46	0x3c907ca4	0.017637558
47	0x3b9df232	0.0048201317
48	0x3d8a38c4	0.067491084
49	0x3d357c81	0.04430819
50	0x3d1d504d	0.03840666
51	0xbce7e174	-0.028305747
52	0x3d59455a	0.053044654
53	0xbd466e6a	-0.048445143
54	0x3c4ec51b	0.012620236
55	0x3cfa7c78	0.03057693
56	0xbbbecf73	-0.0058230697
57	0xbc5c9ca4	-0.01346508
58	0xbbb354b4	-0.005472744
59	0x3ca7ccbf	0.020483373
60	0xbce259a4	-0.027630635
61	0x3d495fbd	0.04916357
62	0x3d86739f	0.06565022
63	0x3d1aa351	0.037753407
64	0x3c1b0ff6	0.009464255
65	0x3dc9fc01	0.09862519
66	0xbd9122ff	-0.07086753
67	0xbdbab2cd	-0.09116135
68	0xbcbea584	-0.023272283
69	0xbcec4f53	-0.028846418
70	0x3bc73e60	0.0060804337
71	0x3d0598ff	0.03261661
72	0xbb93bebf	-0.0045088227
73	0x3d510593	0.051030707
74	0x3d7196c0	0.058981657
75	0x3c411185	0.011783962
76	0xbb447443	-0.0029976524
77	0x3d5dfec7	0.054198053
78	0xbcb27e71	-0.021788808
79	0x3c8194f7	0.015818102
80	0x3c4c060e	0.012452615
81	0x3ddc3e3e	0.10754059
82	0xbd7bacaa	-0.061443962
83	0x3db3e818	0.08784503
84	0x3d599b37	0.05312654
85	0xbd84cfae	-0.06484924
86	0x3dc24d5a	0.0948741
87	0xbcc87e8f	-0.02447441
88	0xbcadad89	-0.021200912
89	0xbc040e87	-0.008060104
90	0xbd2d36c2	-0.04228855
91	0xbd144a11	-0.036203448
92	0xbdf5c633	-0.12000694
93	0x3e15bebb	0.14623539
94	0x3dc8cee5	0.09805087
95	0x3db3520f	0.08755886
96	0x3e138808	0.1440736
97	0x3dd4aadb	0.103841506
98	0x3d3f1780	0.04665327
99	0x3e0724ea	0.13197675
100	0x3df882cf	0.12134325
101	0x3e2beb53	0.16788988
102	0x3ddff8ca	0.109361246
103	0x3da39030	0.07986486
104	0x3e1cc464	0.15309292
105	0x3da3c11e	0.079958186
106	0x3cc70d2f	0.024298279
107	0x3e08907a	0.13336363
108	0x3d99b43f	0.07505082
109	0xbdab0326	-0.0835021
110	0x3cad8661	0.02118224
111	0x3d089f1d	0.033354867
112	0xbc91ebfb	-0.01781272
113	0xbd13cd78	-0.036084622
114	0x3e146dbf	0.1449499
115	0xbcc9ccca	-0.024633784
116	0xbdb9514c	-0.09048709
117	0x3c09bc8f	0.008406772
118	0xbd451bcf	-0.048122223
119	0xbd1ecfdf	-0.03877246
120	0x3d1edbb9	0.038783763
121	0xbc925734	-0.017863847
122	0x3dbf2b51	0.09334434
123	0xbd3df124	-0.046372548
124	0x3d06e7ef	0.032936033
125	0x3e0a886e	0.13528606
126	0xbd57d1eb	-0.052690428
127	0x3c353903	0.011060956
128	0x3c8a6c40	0.01689732
129	0xbc048203	-0.008087638
130	0xbd0ee50b	-0.0348864
131	0xbd2c2645	-0.042028684
132	0x3c8dfea5	0.017333338
133	0x3cdbd72c	0.026836
134	0x3d162ed0	0.036665738
135	0x3e224368	0.15846026
136	0x3d862060	0.06549144
137	0x3d5bb166	0.053635977
138	0x3d42b173	0.04753251
139	0x3db75d23	0.08953311
140	0x3d8f10bb	0.06985613
141	0x3ddeac9a	0.10872765
142	0x3ca8a185	0.020584831
143	0x3d78728e	0.060656123
144	0xbda03304	-0.078222305
145	0xbd350383	-0.044192802
146	0x3c07af9d	0.008281616
147	0xbda5f505	-0.081033744
148	0xba223556	-0.0006187757
149	0x3cea7315	0.028619329
150	0x3b79531e	0.0038043926
151	0xbc0f9672	-0.008763896
152	0xbcbf38d5	-0.02334253
153	0x3d98d61d	0.07462714
154	0x3d76f1c9	0.060289178
155	0x3d4430f3	0.047898244
156	0x3bf64f31	0.0075167646
157	0x3cfdb886	0.030971777
158	0xbd7200ad	-0.059082676
159	0x3aaf4584	0.0013372158
160	0x3cabb0c5	0.020958314
161	0x3c5d3cc8	0.013503261
162	0x3d3f3ef8	0.04669091
163	0x3e162da2	0.14665845
164	0x3e08a344	0.13343531
165	0x3da0e3d0	0.07855952
166	0x3d2f7e95	0.042845327
167	0x3e083d0c	0.13304538
168	0x3d7e8901	0.062142376
169	0x3d4ab84d	0.04949217
170	0x3e2fa26b	0.17151801
171	0x3de241c4	0.110477
172	0x3d6d87b8	0.05799076
173	0x3cdfb87b	0.027309647
174	0x3c845a0f	0.016156225
175	0x3d09459c	0.03351365
176	0x3cbc927d	0.02301907
177	0x3d08d100	0.033402443
178	0x3d6f2981	0.05838919
179	0xbc806b78	-0.015676245
180	0x3dd026f7	0.10163682
181	0x3cc40264	0.023926921
182	0x3cd2d98f	0.025738506
183	0x3d890fda	0.066924766
184	0xba939cba	-0.0011261918
185	0xbcb06361	-0.021531763
186	0x3d9b926e	0.075962886
187	0xbc5d2c10	-0.013499275
188	0x3c8f2071	0.017471524
189	0x3daca7fc	0.08430478
190	0xbd1bae40	-0.038007975
191	0xbd84ce20	-0.06484628
192	0x3d18e150	0.03732425
193	0xbd3a2159	-0.04544196
194	0xbb49b1a5	-0.003077605
195	0x3e1b497e	0.15164754
196	0x3df71449	0.12064416
197	0x3d6f07ad	0.05835693
198	0xbe8a4312	-0.27004296
199	0xbdb0ed80	-0.086390495
200	0x3d7ceabf	0.06174731
201	0xbdda82db	-0.1066949
202	0x3dacd17c	0.084383935
203	0x3d9b6369	0.0758732
204	0xbe67122a	-0.22565523
205	0x3ba86d98	0.0051400177
206	0xbdcdcfc7	-0.10049396
207	0x3e376fe0	0.1791377
208	0x3d49425a	0.049135543
209	0x3df0ab32	0.11751403
210	0x3dcee739	0.10102696
211	0x3cba4df0	0.022742242
212	0x3d6661f7	0.05624577
213	0x3d3f0956	0.046639763
214	0xbc38ffbd	-0.0112914415
215	0x3e06ef3f	0.13177203
216	0x3d0fa42d	0.03506868
217	0x3ccc3957	0.024929686
218	0x39e287a8	0.0004320715
219	0x3db9ea8a	0.09077938
220	0x3cfd34dc	0.030908994
221	0xbd627427	-0.055286553
222	0x3cb4991b	0.022045663
223	0xbd00a098	-0.031403154
224	0x3acea716	0.0015766348
225	0x3c8a03c1	0.016847493
226	0xbc2f7d91	-0.01071109
227	0x3d218caf	0.039440807
228	0x3caf0156	0.021362942
229	0xbd13590b	-0.03597359
230	0x3d4f411d	0.050599206
231	0xbd46b99b	-0.04851685
232	0xbd996be1	-0.074912794
233	0x3b8ccdb9	0.004296985
234	0x3d2104f4	0.039311364
235	0x3d687a62	0.05675734
236	0x39c17954	0.00036902225
237	0x3dc1481b	0.09437581
238	0x3ccee6a0	0.025256455
239	0xbd29d17c	-0.041459545
240	0x3dcee932	0.10103072
241	0x3d06b38e	0.03288608
242	0xbd16ad25	-0.036786217
243	0xbd3851db	-0.04499994
244	0xbdd89a3c	-0.10576293
245	0xbe385c9e	-0.1800408
246	0x3e0736c9	0.13204493
247	0xbcd5588b	-0.026043197
248	0xbd0b7516	-0.03404721
249	0x3c481ad2	0.012213426
250	0xbd27a8bc	-0.040932402
251	0x3d8195c0	0.06327391
252	0x3e525c55	0.20543034
253	0x3db2c11c	0.08728239
254	0x3d89d61f	0.067302935
255	0x3deb4d41	0.114893444
