ModelZoo/models/my_model/SRCNNpara_1218_rx_1sir_5_real_channelnet.pth (torch_old, 57522 bytes, 6 tensors)

conv1.weight f4 [64, 2, 9, 9]
-0.17194939 -0.013518029 -0.080202624 -0.054294985 -0.058294017 -0.11239426 -0.01300003 -0.12783472
-0.05330031 -0.09549918 0.035278223 -0.023231544 0.054960612 0.050446276 0.023854325 -0.004826933
-0.019274706 -0.008924553 0.07268799 0.03211251 -0.036112584 0.031146925 -0.0051464178 0.09209982
0.045735717 0.13736351 0.0784246 0.08442248 0.05791909 0.05675744 0.029628467 0.035962556
-0.015876416 0.09160442 -0.0014325837 -0.06305644 0.11363282 0.018127825 -0.029329611 0.032014564
0.082362294 -0.05912175 0.013102977 -0.051727302 0.02405746 0.056481354 -0.055799257 -0.049870837
-0.06293959 0.06651806 -0.058904827 -0.019502547 -0.035451055 0.01551827 0.029851038 -0.0106998915
-0.07337713 -0.054445703 0.01121056 -0.01651621 -0.03265414 -0.054870695 -0.007797521 -0.03433443
-0.04371194 -0.11480285 0.0055085276 0.13340382 -0.048253585 -0.08662586 -0.113273166 -0.008331505
0.05499636 0.010357406 -0.057590052 0.14573781 0.27385056 0.013550689 -0.13594963 0.092418805
0.23948383 -0.21568836 -0.055297814 0.095575 0.035416733 -0.24681544 -0.16086549 -0.18128629
-0.05541786 -0.04821939 -0.056252766 0.0726753 0.03389231 -0.027706895 0.041833133 -0.0055685993
-0.03265294 -0.071302176 -0.025217503 0.11025179 0.103129916 0.019291025 -0.019492155 0.16758013
0.06318409 0.06498997 -0.030157845 -0.03297281 0.05630141 -0.076884404 -0.04266849 -0.055606313
0.04362108 -0.015449394 0.1323721 -0.02589907 -0.059333432 0.003440144 0.03504892 0.03440796
-0.052990794 0.0966454 -0.09491278 0.10363254 0.021984521 -0.0023324576 0.003314651 0.04566473
-0.03656601 0.07718427 -0.020926183 -0.022210691 0.08357691 0.030200703 -0.046193834 -0.059533477
-0.053333957 0.040616885 -0.035076883 0.005751689 -0.1489274 0.09761067 0.03919264 0.006416666
0.0041271695 0.021034231 -0.057418074 0.014560842 0.037865315 -0.07254382 -0.030724073 -0.112064965
0.04586393 0.06567099 0.10319036 0.04697158 0.023384662 0.14451587 -0.024060808 -0.042885087
0.02338619 0.19391926 0.095609844 0.040392283 -0.11624559 -0.059785943 0.022781318 -0.1430665
-0.0087921 -0.035000023 -0.06786869 0.047740825 -0.08099383 0.005151399 0.030179426 0.099369325
-0.04562457 0.008352897 0.064419724 0.08883565 -0.08111492 0.06878174 -0.02964884 -0.013074032
0.012102856 0.01730694 -0.0077265105 0.10647227 0.009889621 0.0094404025 -0.08323321 0.05366128
0.078355305 0.023095733 -0.012550453 -0.051501706 0.07770646 -0.010726412 -0.031666413 0.059789646
0.02410699 -0.011162672 -0.054607887 -0.075497545 0.016510896 -0.008398068 -0.029499045 -0.066474065
-0.01766966 0.030520255 -0.047493536 -0.015188836 0.06995095 0.05554066 0.029214367 0.049164142
0.09061772 -0.03376626 -0.013684783 -0.01565125 0.0071241977 -0.022835335 0.04279685 -0.021362724
0.006518476 -0.05039564 0.018157253 0.00973215 0.027918832 0.054712214 -0.017828012 0.006344011
-0.07511623 0.011086622 0.06505827 0.011171324 0.01878461 -0.033892095 -0.035177693 -0.040123932
0.016067572 -0.009765986 -0.057335958 0.07261374 0.06840175 -0.022472572 -0.03918004 0.1993724
0.029789539 0.0813182 -0.1175205 -0.032806214 -0.016275998 -0.0063726422 -0.06040229 -0.014833543
00000000: 8013 30be b97a 5dbc 4641 a4bd 6b64 5ebd
00000010: b5c5 6ebd f62e e6bd 14fe 54bc 1be7 02be
00000020: 6d51 5abd 1395 c3bd e67f 103d 1450 bebc
00000030: 611e 613d c1a0 4e3d 256a c33c 402b 9ebb
00000040: fde5 9dbc 4a38 12bc 71dd 943d 6888 033d
00000050: caea 13bd d627 ff3c 48a3 a8bb d59e bc3d
00000060: 6055 3b3d 05a9 0c3e 149d a03d b1e5 ac3d
00000070: 913c 6d3d 7d7a 683d 66b7 f23c 794d 133d
00000080: 420f 82bc 199b bb3d 88c5 bbba bc23 81bd
00000090: 53b8 e83d ce80 943c a744 f0bc b421 033d
000000a0: 90ad a83d a629 72bd dead 563c 02e0 53bd
000000b0: 2614 c53c fe58 673d c38d 64bd 5d45 4cbd
000000c0: 79e6 80bd 9f3a 883d 3046 71bd cec3 9fbc
000000d0: 2035 11bd 5840 7e3c 2a8a f43c 994e 2fbc
000000e0: c046 96bd 7502 5fbd 7fac 373c 014d 87bc
000000f0: 59c0 05bd 18c0 60bd 5982 ffbb 42a2 0cbd
00000100: 4b0b 33bd c21d ebbd e180 b43b 039b 083e
00000110: 8da5 45bd e668 b1bd c3fb e7bd dd80 08bc
00000120: dd43 613d 1cb2 293c 8ce3 6bbd 4b3c 153e
00000130: 2436 8c3e b603 5e3c 6136 0bbe 1246 bd3d
00000140: 403b 753e 69dd 5cbe f67f 62bd d3bc c33d
00000150: 2311 113d 30bd 7cbe ecb9 24be 1da3 39be
00000160: d7fd 62bd b281 45bd 4d69 66bd cad6 943d
00000170: aad2 0a3d 92f9 e2bc 3859 2b3d cc78 b6bb
00000180: 17bf 05bd e006 92bd f094 cebc b1cb e13d
00000190: c735 d33d 3608 9e3c 03ae 9fbc 209a 2b3e
000001a0: a966 813d 7619 853d 960d f7bc 7f0e 07bd
000001b0: 4f9c 663d 9275 9dbd 28c5 2ebd 72c3 63bd
000001c0: 05ac 323d 741f 7dbc 8d8c 073e 492a d4bc
000001d0: 9d07 73bd 0a74 613b 758f 0f3d 5cef 0c3d
000001e0: e00c 59bd 06ee c53d a261 c2bd 4c3d d43d
000001f0: e218 b43c 25dc 18bb 9e3a 593b f10a 3b3d
00000200: 3ec6 15bd c912 9e3d 636d abbc 32f3 b5bc
00000210: 5f2a ab3d 7767 f73c bf35 3dbd 60d9 73bd
00000220: b574 5abd e45d 263d c7ac 0fbd aa78 bc3b
00000230: 6d80 18be 1ae8 c73d 7688 203d e542 d23b
00000240: 353d 873b fb4f ac3c 372f 6bbd 9990 6e3c
00000250: a918 1b3d db91 94bd 0db1 fbbc 5182 e5bd
00000260: d1db 3b3d 837e 863d 7855 d33d 4565 403d
00000270: 3191 bf3c f8fb 133e 2c1b c5bc 46a8 2fbd
00000280: 6594 bf3c c592 463e 18cf c33d 6172 253d
00000290: 2b12 eebd 1be2 74bd e39f ba3c 0680 12be
000002a0: bd0c 10bc 2f5c 0fbd bdfe 8abd e28b 433d
000002b0: 18e0 a5bd 11cd a83b d83a f73c 2582 cb3d
000002c0: d4e0 3abd 97da 083c 7dee 833d 77ef b53d
000002d0: 941f a6bd 71dd 8c3d 20e2 f2bc 7734 56bc
000002e0: 0f4b 463c 49c7 8d3c ab2e fdbb 220e da3d
000002f0: 1408 223c ebab 1a3c 2c76 aabd eecb 5b3d
00000300: bf78 a03d 4333 bd3c 6aa0 4dbc 74f3 52bd
00000310: 9124 9f3d d5bd 2fbc a4b4 01bd fde5 743d
00000320: 067c c53c a4e3 36bc 85ac 5fbd 759e 9abd
00000330: dc41 873c 0d98 09bc fba7 f1bc 8e23 88bd
00000340: f6bf 90bc 9d05 fa3c 9588 42bd 98da 78bc
00000350: 7242 8f3d 9a7e 633d f852 ef3c 5760 493d
00000360: c895 b93d 7d4e 0abd 2436 60bc 0d37 80bc
00000370: 1a72 e93b 2b11 bbbc c04b 2f3d e100 afbc
00000380: f198 d53b a96b 4ebd 85be 943c 9873 1f3c
00000390: 09b6 e43c ea19 603d 0d0c 92bc 6ce1 cf3b
000003a0: 8ad6 99bd aaa4 353c 453d 853d ee07 373c
000003b0: 2fe2 993c 70d2 0abd 7c16 10bd fe58 24bd
000003c0: 24a0 833c 8401 20bc 1cd9 6abd 83b6 943d
000003d0: 3716 8c3d 6618 b8bc 407b 20bd 4728 4c3e
000003e0: 3109 f43c 288a a63d 97ae f0bd cf5f 06bd
000003f0: 3e55 85bc 99d1 d0bb 6468 77bd 6408 73bc

conv1.bias f4 [64]
-0.031165833 -0.047103185 -0.03545093 0.03545778 -0.030447567 -0.029800849 -0.015749997 -0.24641335
-0.022690205 -0.15484333 0.09613936 -0.21438052 0.11173783 -0.16087751 -0.066361725 -0.11940883
0.09250151 0.027299086 -0.018290162 -0.038063083 0.035274435 -0.11193007 0.02982674 0.07908327
-0.07378959 0.20042239 0.18276443 -0.06629423 0.08192818 0.03812134 0.16939875 -0.08471858
-0.06365576 0.1574504 0.056606974 0.09318967 0.060285274 -0.023644252 -0.048997615 0.13254182
-0.028969603 0.22504741 0.09125684 -0.011689533 -0.08487576 0.0034251658 0.08966384 -0.060815115
0.02957804 -0.007205012 -0.09064444 0.17566608 -0.010092774 0.26171058 -0.027426306 -0.043157235
-0.030138843 -0.03755206 0.024251949 0.008879797 0.01633755 -0.0033981174 -0.067865975 -0.06725337
00000000: 7d4f ffbc 45ef 40bd ff34 11bd 2d3c 113d
00000010: 2d6d f9bc e920 f4bc 2306 81bc c853 7cbe
00000020: cfe0 b9bc 408f 1ebe b6e4 c43d 9186 5bbe
00000030: ced6 e43d 13bd 24be a8e8 87bd 9e8c f4bd
00000040: 6f71 bd3d 55a2 df3c 40d5 95bc 09e8 1bbd
00000050: ed7b 103d 983b e5bd 3557 f43c 69f6 a13d
00000060: ff1e 97bd 873b 4d3e 9926 3b3e 45c5 87bd
00000070: f6c9 a73d 1f25 1c3d de76 2d3e ef80 adbd
00000080: f35d 82bd ad3a 213e b7dc 673d 3ada be3d
00000090: b1ed 763d 97b1 c1bc b9b1 48bd 0bb9 073e
000000a0: a951 edbc d472 663e dee4 ba3d 7485 3fbc
000000b0: 58d3 adbd bf78 603b ada1 b73d 4519 79bd
000000c0: a54d f23c 0518 ecbb cba3 b9bd cfe1 333e
000000d0: 2a5c 25bc eefe 853e 22ad e0bc a4c5 30bd
000000e0: bce5 f6bc 30d0 19bd 06ac c63c 917c 113c
000000f0: 53d6 853c f3b2 5ebb 51fd 8abd 23bc 89bd

conv2.weight f4 [32, 64, 1, 1]
9.709821e-05 0.16084528 0.00013381203 -0.02116064 0.023103883 -0.14221303 -0.056286413 -0.063929655
-0.32908303 -0.2802465 0.057335798 -0.11563784 -0.08293975 -0.05632128 0.2683359 -0.07982917
-0.14903714 -0.07131684 -0.12406395 -0.08544708 -0.13517146 0.10837171 0.0779942 -0.017219322
0.1157046 0.041088697 0.09787383 -0.02421423 -0.12966496 0.09819388 -0.074106865 0.031467248
-0.003588989 -0.09006531 0.038176004 -0.21466736 -0.15640186 0.05021785 0.17946425 0.042805508
0.21465848 -0.005186286 0.17007466 0.051510114 0.14195202 -0.27260113 -0.046857815 -0.047446333
0.10344375 0.092662334 0.018741017 -0.056402523 -0.08424901 0.054333143 0.29418978 0.02876244
-0.00059168116 0.0053313104 0.13929491 -0.06845804 0.007117293 -0.10680506 -0.05057014 0.41406515
0.081093505 -0.18060204 -0.0014349186 0.06889958 0.0077682203 0.11351004 -0.020026525 -0.25242987
0.15168034 0.07171755 -0.02108016 -0.013961545 -0.10005281 0.021472644 0.1354077 -0.5411085
-0.20262375 -0.06546014 -0.22511815 -0.14905833 0.0044119316 -0.18803252 0.02321042 -0.53513134
0.124551564 0.013455199 0.12593456 0.02874224 -0.052047603 0.0074386704 -0.098839395 -0.079766355
-0.14486037 0.22522072 -0.05988211 -0.09116734 -0.07933483 0.07820269 0.09496041 -0.09714876
0.12515771 -0.029912028 0.043138873 0.24846701 0.11857342 0.011129012 0.045458257 -0.022072822
0.034460593 0.085803986 0.08098538 -0.017625874 -0.103431225 0.060335178 0.17595467 -0.12391901
-0.104813084 -0.21490836 0.13318416 0.09078555 -0.17269748 0.05712496 -0.014035627 0.0093180025
-0.015236496 -0.066786684 0.23726134 -0.008960495 0.06653457 0.017530115 0.068442345 0.063055396
0.020752361 -0.0011294587 -0.10904254 -0.05064408 0.040676117 0.11007805 0.13869408 0.040514156
0.1375419 -0.08658692 0.059898984 -0.03448366 -0.05804393 -0.21119261 0.072914675 0.09803279
-0.00388464 0.024177983 0.011949805 0.28899118 0.020676995 -0.06909624 -0.009533967 -0.03857962
0.02843386 -0.016948046 0.06380988 -0.10707799 0.06512275 -0.09288614 -0.09129926 -0.10033508
-0.034274798 0.24287276 -0.0031010285 0.012794981 0.053590026 -0.06207852 -0.114582136 -0.09295382
-0.110786825 -0.22087881 -0.11323689 -0.02443762 0.019014146 -0.32173288 -0.09501948 0.12828882
0.054696873 -0.17237897 -0.150367 0.0017015729 -0.03293448 -0.02568773 -0.044893995 -0.012508422
0.12754142 -0.1623159 0.065143764 -0.110561274 0.30014285 0.03398183 -0.15750057 -0.031928517
0.08764175 0.20376678 -0.038772706 -0.2522983 -0.012766621 0.13079996 0.16641338 -0.12587635
-0.15782353 -0.23661822 -0.07065608 0.07181372 0.068029486 -0.03406101 0.08453274 -0.14532925
-0.02852251 -0.10595224 0.09074756 0.18838824 0.10482004 -0.08438299 0.09714111 -0.22388284
-0.03314019 0.0075218757 -0.0051475074 -0.07031497 0.15372095 -0.04197391 0.0136495875 -0.09680226
0.16620056 -0.010042593 0.062193964 -0.002275869 0.25669605 0.031248989 -0.012616004 -0.16726619
-0.106900275 0.0026300661 -0.004363548 0.048992347 0.048948336 -0.059142273 -0.030493977 0.040369924
-0.07491811 -0.03415862 0.040184993 0.037449837 -0.120806396 -0.029747408 -0.014266325 0.13677682
00000000: 34a1 cb38 a0b4 243e e54f 0c39 1459 adbc
00000010: 5b44 bd3c 4ba0 11be 958c 66bd 8ded 82bd
00000020: 927d a8be 787c 8fbe f1d8 6a3d 88d3 ecbd
00000030: 51dc a9bd 24b1 66bd 5363 893e 7a7d a3bd
00000040: 319d 18be 900e 92bd 3d15 febd e1fe aebd
00000050: 636a 0abe fdf1 dd3d 6cbb 9f3d 890f 8dbc
00000060: 89f6 ec3d 9f4c 283d 1372 c83d ec5c c6bc
00000070: e4c6 04be df19 c93d 57c5 97bd cde3 003d
00000080: 3e35 6bbb 2974 b8bd 715e 1c3d c3d1 5bbe
00000090: cf27 20be 3bb1 4d3d 7ac5 373e d454 2f3d
000000a0: 6fcf 5b3e b8f1 a9bb 0d28 2e3e 45fc 523d
000000b0: df5b 113e 6092 8bbe fbed 3fbd 1657 42bd
000000c0: 51da d33d c0c5 bd3d c386 993c 5506 67bd
000000d0: bf8a acbd 6e8c 5e3d 0ba0 963e 359f eb3c
000000e0: 0d1b 1bba 46b2 ae3b 53a3 0e3e bb33 8cbd
000000f0: 2e38 e93b 9cbc dabd a322 4fbd 5900 d43e
00000100: 5a14 a63d beef 38be e113 bcba 391b 8d3d
00000110: 8e8c fe3b f477 e83d ab0e a4bc 7d3e 81be
00000120: 1752 1b3e a7e0 923d 4db0 acbc f7be 64bc
00000130: 7de8 ccbd 66e7 af3c 51a8 0a3e 1686 0abf
00000140: 9a7c 4fbe f70f 86bd 5f85 66be bfa2 18be
00000150: f791 903b 998b 40be c723 be3c 5efe 08bf
00000160: e414 ff3d 3273 5c3c fdf4 003e d974 eb3c
00000170: de2f 55bd 17c0 f33b 4f6c cabd 8b5c a3bd
00000180: 4756 14be 43a0 663e f246 75bd f1b5 babd
00000190: 4d7a a2bd bb28 a03d 9a7a c23d eef5 c6bd
000001a0: 5829 003e 120a f5bc 63b2 303d 236e 7e3e
000001b0: 9fd6 f23d 7656 363c 7032 3a3d 10d2 b4bc
000001c0: 8d26 0d3d 00ba af3d aadb a53d 2364 90bc
000001d0: c0d3 d3bd 0522 773d 762d 343e 40c9 fdbd
000001e0: 3ea8 d6bd f010 5cbe 6e61 083e c6ed b93d
000001f0: 9cd7 30be ddfb 693d b0f5 65bc 89aa 183c
00000200: 7fa2 79bc 75c7 88bd a3f4 723e 0acf 12bc
00000210: 4743 883d 519b 8f3c 802b 8c3d 3023 813d
00000220: db00 aa3c 580a 94ba b251 dfbd 2b70 4fbd
00000230: 009c 263d 9a70 e13d d205 0e3e 2cf2 253d
00000240: c9d7 0c3e 7c54 b1bd a358 753d bd3e 0dbd
00000250: 79bf 6dbd e042 58be 4a54 953d 6ac5 c83d
00000260: 7295 7ebb e810 c63c 1dc9 433c a7f6 933e
00000270: cd62 a93c 5482 8dbd 5b34 1cbc aa05 1ebd
00000280: 20ee e83c a1d6 8abc c1ae 823d b54b dbbd
00000290: 145f 853d 173b bebd 1bfb babd 7a7c cdbd
000002a0: bb63 0cbd a3b3 783e a03a 4bbb 0aa2 513c
000002b0: 3781 5b3d 0c46 7ebd 0aaa eabd 935e bebd
000002c0: 34e4 e2bd 0e2e 62be bee8 e7bd 6731 c8bc
000002d0: 8ec3 9b3c 2cba a4be 9399 c2bd 255e 033e
000002e0: d409 603d 1d84 30be cff9 19be 5007 df3a
000002f0: 4ee6 06bd 136f d2bc c4e2 37bd 20f0 4cbc
00000300: 389a 023e 2436 26be 186a 853d f36d e2bd
00000310: 53ac 993e 8830 0b3d d447 21be 7ac7 02bd
00000320: 857d b33d 3da8 503e 21d0 1ebd 3e2d 81be
00000330: 172b 51bc 6df0 053e 4568 2a3e bbe5 00be
00000340: 7e9c 21be 0c4c 72be 23b4 90bd 1213 933d
00000350: 0b53 8b3d 8f83 0bbd 801f ad3d 31d1 14be
00000360: 0aa8 e9bc 7dfd d8bd dbd9 b93d d9e8 403e
00000370: e4ab d63d fdd0 acbd ebf1 c63d 8b41 65be
00000380: 02be 07bd 117a f63b 6cac a8bb 4c01 90bd
00000390: 0669 1d3e d6ec 2bbd 85a2 5f3c 4340 c6bd
000003a0: 7b30 2a3e b089 24bc 19bf 7e3d bf26 15bb
000003b0: aa6d 833e e1fd ff3c 5bb3 4ebc d447 2bbe
000003c0: 88ee dabd 305d 2c3b 18fc 8ebb 33ac 483d
000003d0: 0d7e 483d 2b3f 72bd 81ce f9bc ef5a 253d
000003e0: ab6e 99bd e9e9 0bbd 0599 243d 0065 193d
000003f0: 5869 f7bd d6b0 f3bc 4ebd 69bc 390f 0c3e

conv2.bias f4 [32]
0.03178362 0.017695641 0.021958286 -0.0013201791 0.13202302 0.025187816 -0.0058583673 0.028077569
0.03595162 -0.07430339 -0.017562946 -0.074094735 -0.048717834 -0.040684532 -0.018869042 0.0022855042
0.030050391 0.029700262 0.013074649 0.019157203 -0.004939374 0.03624011 0.03108076 0.05494631
0.028979927 -0.00014241434 0.059365153 0.018764254 0.10856923 0.047965996 -0.03465034 -0.0021735358
00000000: 8b2f 023d 73f6 903c dde1 b33c dc09 adba
00000010: 0b31 073e ae56 ce3c 8cf7 bfbb ee02 e63c
00000020: 0242 133d 602c 98bd 2be0 8fbc fbbe 97bd
00000030: 5a8c 47bd d3a4 26bd 4093 9abc 66c8 153b
00000040: 3d2c f63c f74d f33c 0d37 563c 91ef 9c3c
00000050: 79da a1bb 8270 143d 149d fe3c 620f 613d
00000060: 5067 ed3c 0f55 15b9 e028 733d 7eb7 993c
00000070: 8b59 de3d fe77 443d 84ed 0dbd e171 0ebb

conv3.weight f4 [2, 32, 5, 5]
0.017817281 0.03218242 0.034686457 0.047480028 0.09897534 -0.008899245 -0.00085803284 4.4411947e-05
0.0070099854 0.012713779 0.004796336 0.029786864 0.031389806 0.026678333 0.05698848 0.004407815
-0.002737279 0.0131560415 -0.0014973349 0.009724418 -0.006074832 0.02173748 0.028016718 0.031941924
0.07403388 0.14651608 0.07503549 0.13376436 0.07590083 0.16908239 -0.0058184015 -0.01685846
0.010127171 -0.0026377616 -0.008222847 0.041767303 0.026676152 0.039546404 0.020257408 0.03259112
0.012499538 0.0007945426 0.04991122 0.0043680836 0.02901395 0.10803203 0.03294512 0.091138735
0.047767226 0.0897841 0.18633084 0.12635559 0.15046184 0.09986917 0.12297526 -0.027462834
-0.01635413 -0.0039279237 -0.0035359953 0.011743838 0.079433076 0.039145473 0.033745762 0.029315982
0.0206548 0.0071797646 0.016665202 0.024240298 0.0044140336 0.009745205 0.08501612 0.0634143
0.07933286 0.07023409 0.09705434 -0.07695682 -0.043144602 -0.053050138 -0.017444205 -0.028073972
-0.007338428 0.0009131181 0.00720423 0.007821852 -0.010940378 -0.029882 -0.029234475 -0.047245923
-0.010618035 -0.032007325 -0.017218301 -0.00021479483 0.0047748107 -0.0016788824 0.0060053174 -0.06827765
-0.04018837 -0.036606517 -0.023397496 -0.0619363 -0.06328552 -0.03268354 -0.032966077 -0.039574742
-0.066803075 0.0025430142 0.0015025791 -0.0009591826 -0.000318667 0.014671897 0.008859553 -0.020409834
-0.028801918 0.003127304 -0.015178244 -0.005983248 -0.0063417275 0.02166842 -0.016746135 0.008486387
-0.030816773 -0.006838103 -0.01853706 -0.0016285339 -0.043546636 -0.064074986 -0.009139905 0.0070060324
0.06503653 0.08963426 -0.011282456 0.0146886865 0.015116948 0.03995023 0.047207512 -0.06592047
-0.029613363 -0.06743893 0.03444601 0.026026089 -0.012747421 0.024674937 -0.01422013 0.056151487
0.008376065 -0.07917252 -0.061975133 -0.09666677 -0.0052247564 -0.07749457 -0.05140308 -0.010250465
-0.075830095 -0.030473273 -0.08148063 0.02891069 -0.0046669263 0.0048071076 0.010554942 -0.003412703
-0.027000053 -0.0115922745 -0.055481527 -0.015044627 -0.04467007 0.00065081136 0.026644846 -0.052757762
0.009541479 -0.02676954 -0.015096662 -0.021071846 -0.03132 -0.01185176 -0.060175452 -0.040667117
-0.030203737 -0.020603683 -0.024386449 -0.040294167 -0.016856432 -0.011871403 -0.02292498 -0.001942586
-0.027295021 -0.04865359 -0.029155714 -0.040164113 -0.031469002 -0.01810564 -0.0104136225 0.021541659
-0.0045026625 0.016158704 0.006836536 -0.1149701 -0.08080455 -0.08326456 -0.04544046 -0.09701264
-0.018708441 0.010219439 0.015042759 0.0064853206 -0.005364667 -0.0113007 -0.011939586 0.003163602
-0.0024218766 -0.038095776 0.0012413248 0.02147451 0.008380409 -0.014958716 0.015971279 -0.0041071787
-0.01848288 0.010484598 0.013246719 -0.009003095 -0.05805654 -0.02405744 -0.057231963 -0.029354235
-0.08166216 0.10835003 0.04013069 0.11223519 0.058035687 0.106126525 -0.0027024634 -6.5573013e-06
-0.00054752437 0.008278241 0.014784188 0.073464036 0.043140642 0.045066386 0.03072614 0.04205166
0.01642759 0.0097624855 0.02254794 0.015603572 0.009878124 0.09675905 0.037248876 0.031008784
0.026381005 0.07388005 0.052653797 0.03752202 0.10350216 0.004840569 0.08119805 -0.019946078
00000000: 8cf5 913c b7d1 033d 6313 0e3d 6b7a 423d
00000010: 95b3 ca3d 24ce 11bc 9ced 60ba f746 3a38
00000020: 05b4 e53b 744d 503c 952a 9d3b 9503 f43c
00000030: 9992 003d 858c da3c c16c 693d 6f6f 903b
00000040: ec63 33bb 708c 573c 3942 c4ba 2a53 1f3c
00000050: 620f c7bb cd12 b23c 5183 e53c 89d5 023d
00000060: 139f 973d 5008 163e 35ac 993d 86f9 083e
00000070: e571 9b3d ef23 2d3e 4aa8 bebb c11a 8abc
00000080: 6fec 253c 4cde 2cbb 1fb9 06bc 3114 2b3d
00000090: f287 da3c 69fb 213d ddf2 a53c 447e 053d
000000a0: ddca 4c3c da48 503a b56f 4c3d 2422 8f3b
000000b0: aaae ed3c e63f dd3d 76f1 063d f2a6 ba3d
000000c0: 91a7 433d bae0 b73d 83cd 3e3e 5c63 013e
000000d0: ab12 1a3e 3588 cc3d 74da fb3d bdf9 e0bc
000000e0: 19f9 85bc d0b5 80bb 28bc 67bb 3a69 403c
000000f0: cfad a23d 0157 203d ff38 0a3d 1228 f03c
00000100: 4134 a93c 3b44 eb3b 7685 883c 9793 c63c
00000110: 99a3 903b 5aaa 1f3c ee1c ae3d 5bdf 813d
00000120: 4479 a23d e4d6 8f3d 6dc4 c63d 8a9b 9dbd
00000130: 65b8 30bd 1a4b 59bd 26e7 8ebc 63fb e5bc
00000140: 3277 f0bb 525e 6f3a 7611 ec3b 3a27 003c
00000150: 453f 33bc 19cb f4bc 237d efbc f184 41bd
00000160: 44f7 2dbc 1d1a 03bd 650d 8dbc 8c3a 61b9
00000170: 0476 9c3b f20d dcba 41c8 c43b 27d5 8bbd
00000180: 8f9c 24bd b7f0 15bd 1bac bfbc ebb0 7dbd
00000190: d79b 81bd 2ddf 05bd 7007 07bd 2019 22bd
000001a0: 0dd0 88bd b3a8 263b 30f2 c43a a871 7bba
000001b0: c312 a7b9 6562 703c a927 113c 8632 a7bc
000001c0: 00f2 ebbc 74f3 4c3b 2bae 78bc 1f0f c4bb
000001d0: 44ce cfbb f881 b13c 312f 89bc 7d0a 0b3c
000001e0: 7573 fcbc 2a12 e0bb 08db 97bc 8874 d5ba
000001f0: f55d 32bd bf39 83bd 8abf 15bc dc92 e53b
00000200: df31 853d 2b92 b73d 0dda 38bc d1a8 703c
00000210: 13ad 773c daa2 233d aa5c 413d 5001 87bd
00000220: b997 f2bc 6c1d 8abd 4217 0d3d aa34 d53c
00000230: 8fda 50bc 1823 ca3c 8cfb 68bc 1aff 653d
00000240: c33b 093c 3425 a2bd a3d9 7dbd 3af9 c5bd
00000250: 6f34 abbb 79b5 9ebd 098c 52bd 91f1 27bc
00000260: cf4c 9bbd 16a3 f9bc 51df a6bd 1dd6 ec3c
00000270: 04ed 98bb f184 9d3b a3ee 2c3c a8a7 5fbb
00000280: 372f ddbc 86ed 3dbc 9940 63bd bd7d 76bc
00000290: f7f7 36bd 369b 2a3a 4b46 da3c 8618 58bd
000002a0: dd53 1c3c cb4b dbbc fd57 77bc dd9e acbc
000002b0: 6649 00bd e22d 42bc 897a 76bd 9092 26bd
000002c0: d46d f7bc 0ec9 a8bc 17c6 c7bc 7f0b 25bd
000002d0: 8016 8abc 4680 42bc 2bcd bbbc 5f9e feba
000002e0: cf99 dfbc fd48 47bd f7d7 eebc 2083 24bd
000002f0: a4e5 00bd 4752 94bc e69d 2abc 2278 b03c
00000300: 128b 93bb 425f 843c 0505 e03b 7275 ebbd
00000310: db7c a5bd 9c86 aabd c71f 3abd 90ae c6bd
00000320: 7242 99bc 6f6f 273c e775 763c d082 d43b
00000330: 17ca afbb 9226 39bc 419e 43bc 6f54 4f3b
00000340: 59b8 1ebb 510a 1cbd f3b3 a23a 50eb af3c
00000350: fc4d 093c 6715 75bc 33d6 823c 8395 86bb
00000360: 6969 97bc 97c7 2b3c c408 593c b881 13bc
00000370: b2cc 6dbd 1c14 c5bc 106c 6abd 4b78 f0bc
00000380: 7e3e a7bd 9fe6 dd3d 1460 243d 90db e53d
00000390: d4b6 6d3d dd58 d93d d01b 31bb ca06 dcb6
000003a0: bd87 0fba 76a1 073c 6139 723c 5074 963d
000003b0: 3eb4 303d 8897 383d 63b5 fb3c 5d3e 2c3d
000003c0: 2793 863c d5f2 1f3c 75b6 b83c 20a6 7f3c
000003d0: dbd7 213c 9c29 c63d 4792 183d 2206 fe3c
000003e0: fa1c d83c 6c4e 973d 82ab 573d b1b0 193d
000003f0: f1f8 d33d a39d 9e3b 2a4b a63d f565 a3bc

conv3.bias f4 [2]
-0.0020594273 -0.011639178
00000000: 75f7 06bb 40b2 3ebc
